I0129 09:01:44.171314 32491 caffe.cpp:355] Use GPU with device ID 0
I0129 09:01:44.359411 32491 net.cpp:296] The NetState phase (0) differed from the phase (1) specified by a rule in layer detection_out
I0129 09:01:44.359643 32491 net.cpp:53] Initializing net from parameters: 
name: "remove_bn"
state {
  phase: TRAIN
  level: 0
  stage: ""
}
layer {
  name: "data"
  type: "Input"
  top: "data"
  input_param {
    shape {
      dim: 1
      dim: 3
      dim: 416
      dim: 416
    }
  }
}
layer {
  name: "conv0"
  type: "Convolution"
  bottom: "data"
  top: "conv0"
  param {
    lr_mult: 1
    decay_mult: 1
  }
  convolution_param {
    num_output: 32
    bias_term: true
    pad: 1
    kernel_size: 3
    stride: 2
    weight_filler {
      type: "msra"
    }
  }
}
layer {
  name: "conv0/relu"
  type: "ReLU"
  bottom: "conv0"
  top: "conv0"
}
layer {
  name: "conv1/dw"
  type: "DepthwiseConvolution"
  bottom: "conv0"
  top: "conv1/dw"
  param {
    lr_mult: 1
    decay_mult: 1
  }
  convolution_param {
    num_output: 32
    bias_term: true
    pad: 1
    kernel_size: 3
    group: 32
    weight_filler {
      type: "msra"
    }
    engine: CAFFE
  }
}
layer {
  name: "conv1/dw/relu"
  type: "ReLU"
  bottom: "conv1/dw"
  top: "conv1/dw"
}
layer {
  name: "conv1"
  type: "Convolution"
  bottom: "conv1/dw"
  top: "conv1"
  param {
    lr_mult: 1
    decay_mult: 1
  }
  convolution_param {
    num_output: 64
    bias_term: true
    kernel_size: 1
    weight_filler {
      type: "msra"
    }
  }
}
layer {
  name: "conv1/relu"
  type: "ReLU"
  bottom: "conv1"
  top: "conv1"
}
layer {
  name: "conv2/dw"
  type: "DepthwiseConvolution"
  bottom: "conv1"
  top: "conv2/dw"
  param {
    lr_mult: 1
    decay_mult: 1
  }
  convolution_param {
    num_output: 64
    bias_term: true
    pad: 1
    kernel_size: 3
    group: 64
    stride: 2
    weight_filler {
      type: "msra"
    }
    engine: CAFFE
  }
}
layer {
  name: "conv2/dw/relu"
  type: "ReLU"
  bottom: "conv2/dw"
  top: "conv2/dw"
}
layer {
  name: "conv2"
  type: "Convolution"
  bottom: "conv2/dw"
  top: "conv2"
  param {
    lr_mult: 1
    decay_mult: 1
  }
  convolution_param {
    num_output: 128
    bias_term: true
    kernel_size: 1
    weight_filler {
      type: "msra"
    }
  }
}
layer {
  name: "conv2/relu"
  type: "ReLU"
  bottom: "conv2"
  top: "conv2"
}
layer {
  name: "conv3/dw"
  type: "DepthwiseConvolution"
  bottom: "conv2"
  top: "conv3/dw"
  param {
    lr_mult: 1
    decay_mult: 1
  }
  convolution_param {
    num_output: 128
    bias_term: true
    pad: 1
    kernel_size: 3
    group: 128
    weight_filler {
      type: "msra"
    }
    engine: CAFFE
  }
}
layer {
  name: "conv3/dw/relu"
  type: "ReLU"
  bottom: "conv3/dw"
  top: "conv3/dw"
}
layer {
  name: "conv3"
  type: "Convolution"
  bottom: "conv3/dw"
  top: "conv3"
  param {
    lr_mult: 1
    decay_mult: 1
  }
  convolution_param {
    num_output: 128
    bias_term: true
    kernel_size: 1
    weight_filler {
      type: "msra"
    }
  }
}
layer {
  name: "conv3/relu"
  type: "ReLU"
  bottom: "conv3"
  top: "conv3"
}
layer {
  name: "conv4/dw"
  type: "DepthwiseConvolution"
  bottom: "conv3"
  top: "conv4/dw"
  param {
    lr_mult: 1
    decay_mult: 1
  }
  convolution_param {
    num_output: 128
    bias_term: true
    pad: 1
    kernel_size: 3
    group: 128
    stride: 2
    weight_filler {
      type: "msra"
    }
    engine: CAFFE
  }
}
layer {
  name: "conv4/dw/relu"
  type: "ReLU"
  bottom: "conv4/dw"
  top: "conv4/dw"
}
layer {
  name: "conv4"
  type: "Convolution"
  bottom: "conv4/dw"
  top: "conv4"
  param {
    lr_mult: 1
    decay_mult: 1
  }
  convolution_param {
    num_output: 256
    bias_term: true
    kernel_size: 1
    weight_filler {
      type: "msra"
    }
  }
}
layer {
  name: "conv4/relu"
  type: "ReLU"
  bottom: "conv4"
  top: "conv4"
}
layer {
  name: "conv5/dw"
  type: "DepthwiseConvolution"
  bottom: "conv4"
  top: "conv5/dw"
  param {
    lr_mult: 1
    decay_mult: 1
  }
  convolution_param {
    num_output: 256
    bias_term: true
    pad: 1
    kernel_size: 3
    group: 256
    weight_filler {
      type: "msra"
    }
    engine: CAFFE
  }
}
layer {
  name: "conv5/dw/relu"
  type: "ReLU"
  bottom: "conv5/dw"
  top: "conv5/dw"
}
layer {
  name: "conv5"
  type: "Convolution"
  bottom: "conv5/dw"
  top: "conv5"
  param {
    lr_mult: 1
    decay_mult: 1
  }
  convolution_param {
    num_output: 256
    bias_term: true
    kernel_size: 1
    weight_filler {
      type: "msra"
    }
  }
}
layer {
  name: "conv5/relu"
  type: "ReLU"
  bottom: "conv5"
  top: "conv5"
}
layer {
  name: "conv6/dw"
  type: "DepthwiseConvolution"
  bottom: "conv5"
  top: "conv6/dw"
  param {
    lr_mult: 1
    decay_mult: 1
  }
  convolution_param {
    num_output: 256
    bias_term: true
    pad: 1
    kernel_size: 3
    group: 256
    stride: 2
    weight_filler {
      type: "msra"
    }
    engine: CAFFE
  }
}
layer {
  name: "conv6/dw/relu"
  type: "ReLU"
  bottom: "conv6/dw"
  top: "conv6/dw"
}
layer {
  name: "conv6"
  type: "Convolution"
  bottom: "conv6/dw"
  top: "conv6"
  param {
    lr_mult: 1
    decay_mult: 1
  }
  convolution_param {
    num_output: 512
    bias_term: true
    kernel_size: 1
    weight_filler {
      type: "msra"
    }
  }
}
layer {
  name: "conv6/relu"
  type: "ReLU"
  bottom: "conv6"
  top: "conv6"
}
layer {
  name: "conv7/dw"
  type: "DepthwiseConvolution"
  bottom: "conv6"
  top: "conv7/dw"
  param {
    lr_mult: 1
    decay_mult: 1
  }
  convolution_param {
    num_output: 512
    bias_term: true
    pad: 1
    kernel_size: 3
    group: 512
    weight_filler {
      type: "msra"
    }
    engine: CAFFE
  }
}
layer {
  name: "conv7/dw/relu"
  type: "ReLU"
  bottom: "conv7/dw"
  top: "conv7/dw"
}
layer {
  name: "conv7"
  type: "Convolution"
  bottom: "conv7/dw"
  top: "conv7"
  param {
    lr_mult: 1
    decay_mult: 1
  }
  convolution_param {
    num_output: 512
    bias_term: true
    kernel_size: 1
    weight_filler {
      type: "msra"
    }
  }
}
layer {
  name: "conv7/relu"
  type: "ReLU"
  bottom: "conv7"
  top: "conv7"
}
layer {
  name: "conv8/dw"
  type: "DepthwiseConvolution"
  bottom: "conv7"
  top: "conv8/dw"
  param {
    lr_mult: 1
    decay_mult: 1
  }
  convolution_param {
    num_output: 512
    bias_term: true
    pad: 1
    kernel_size: 3
    group: 512
    weight_filler {
      type: "msra"
    }
    engine: CAFFE
  }
}
layer {
  name: "conv8/dw/relu"
  type: "ReLU"
  bottom: "conv8/dw"
  top: "conv8/dw"
}
layer {
  name: "conv8"
  type: "Convolution"
  bottom: "conv8/dw"
  top: "conv8"
  param {
    lr_mult: 1
    decay_mult: 1
  }
  convolution_param {
    num_output: 512
    bias_term: true
    kernel_size: 1
    weight_filler {
      type: "msra"
    }
  }
}
layer {
  name: "conv8/relu"
  type: "ReLU"
  bottom: "conv8"
  top: "conv8"
}
layer {
  name: "conv9/dw"
  type: "DepthwiseConvolution"
  bottom: "conv8"
  top: "conv9/dw"
  param {
    lr_mult: 1
    decay_mult: 1
  }
  convolution_param {
    num_output: 512
    bias_term: true
    pad: 1
    kernel_size: 3
    group: 512
    weight_filler {
      type: "msra"
    }
    engine: CAFFE
  }
}
layer {
  name: "conv9/dw/relu"
  type: "ReLU"
  bottom: "conv9/dw"
  top: "conv9/dw"
}
layer {
  name: "conv9"
  type: "Convolution"
  bottom: "conv9/dw"
  top: "conv9"
  param {
    lr_mult: 1
    decay_mult: 1
  }
  convolution_param {
    num_output: 512
    bias_term: true
    kernel_size: 1
    weight_filler {
      type: "msra"
    }
  }
}
layer {
  name: "conv9/relu"
  type: "ReLU"
  bottom: "conv9"
  top: "conv9"
}
layer {
  name: "conv10/dw"
  type: "DepthwiseConvolution"
  bottom: "conv9"
  top: "conv10/dw"
  param {
    lr_mult: 1
    decay_mult: 1
  }
  convolution_param {
    num_output: 512
    bias_term: true
    pad: 1
    kernel_size: 3
    group: 512
    weight_filler {
      type: "msra"
    }
    engine: CAFFE
  }
}
layer {
  name: "conv10/dw/relu"
  type: "ReLU"
  bottom: "conv10/dw"
  top: "conv10/dw"
}
layer {
  name: "conv10"
  type: "Convolution"
  bottom: "conv10/dw"
  top: "conv10"
  param {
    lr_mult: 1
    decay_mult: 1
  }
  convolution_param {
    num_output: 512
    bias_term: true
    kernel_size: 1
    weight_filler {
      type: "msra"
    }
  }
}
layer {
  name: "conv10/relu"
  type: "ReLU"
  bottom: "conv10"
  top: "conv10"
}
layer {
  name: "conv11/dw"
  type: "DepthwiseConvolution"
  bottom: "conv10"
  top: "conv11/dw"
  param {
    lr_mult: 1
    decay_mult: 1
  }
  convolution_param {
    num_output: 512
    bias_term: true
    pad: 1
    kernel_size: 3
    group: 512
    weight_filler {
      type: "msra"
    }
    engine: CAFFE
  }
}
layer {
  name: "conv11/dw/relu"
  type: "ReLU"
  bottom: "conv11/dw"
  top: "conv11/dw"
}
layer {
  name: "conv11"
  type: "Convolution"
  bottom: "conv11/dw"
  top: "conv11"
  param {
    lr_mult: 1
    decay_mult: 1
  }
  convolution_param {
    num_output: 512
    bias_term: true
    kernel_size: 1
    weight_filler {
      type: "msra"
    }
  }
}
layer {
  name: "conv11/relu"
  type: "ReLU"
  bottom: "conv11"
  top: "conv11"
}
layer {
  name: "conv12/dw"
  type: "DepthwiseConvolution"
  bottom: "conv11"
  top: "conv12/dw"
  param {
    lr_mult: 1
    decay_mult: 1
  }
  convolution_param {
    num_output: 512
    bias_term: true
    pad: 1
    kernel_size: 3
    group: 512
    stride: 2
    weight_filler {
      type: "msra"
    }
    engine: CAFFE
  }
}
layer {
  name: "conv12/dw/relu"
  type: "ReLU"
  bottom: "conv12/dw"
  top: "conv12/dw"
}
layer {
  name: "conv12"
  type: "Convolution"
  bottom: "conv12/dw"
  top: "conv12"
  param {
    lr_mult: 1
    decay_mult: 1
  }
  convolution_param {
    num_output: 1024
    bias_term: true
    kernel_size: 1
    weight_filler {
      type: "msra"
    }
  }
}
layer {
  name: "conv12/relu"
  type: "ReLU"
  bottom: "conv12"
  top: "conv12"
}
layer {
  name: "conv13/dw"
  type: "DepthwiseConvolution"
  bottom: "conv12"
  top: "conv13/dw"
  param {
    lr_mult: 1
    decay_mult: 1
  }
  convolution_param {
    num_output: 1024
    bias_term: true
    pad: 1
    kernel_size: 3
    group: 1024
    weight_filler {
      type: "msra"
    }
    engine: CAFFE
  }
}
layer {
  name: "conv13/dw/relu"
  type: "ReLU"
  bottom: "conv13/dw"
  top: "conv13/dw"
}
layer {
  name: "conv13"
  type: "Convolution"
  bottom: "conv13/dw"
  top: "conv13"
  param {
    lr_mult: 1
    decay_mult: 1
  }
  convolution_param {
    num_output: 1024
    bias_term: true
    kernel_size: 1
    weight_filler {
      type: "msra"
    }
  }
}
layer {
  name: "conv13/relu"
  type: "ReLU"
  bottom: "conv13"
  top: "conv13"
}
layer {
  name: "conv15/dw"
  type: "DepthwiseConvolution"
  bottom: "conv13"
  top: "conv15/dw"
  param {
    lr_mult: 1
    decay_mult: 1
  }
  convolution_param {
    num_output: 1024
    bias_term: true
    pad: 1
    kernel_size: 3
    group: 1024
    weight_filler {
      type: "msra"
    }
    engine: CAFFE
  }
}
layer {
  name: "conv15/dw/relu"
  type: "ReLU"
  bottom: "conv15/dw"
  top: "conv15/dw"
}
layer {
  name: "conv15"
  type: "Convolution"
  bottom: "conv15/dw"
  top: "conv15"
  param {
    lr_mult: 1
    decay_mult: 1
  }
  convolution_param {
    num_output: 1024
    bias_term: true
    kernel_size: 1
    weight_filler {
      type: "msra"
    }
  }
}
layer {
  name: "conv15/relu"
  type: "ReLU"
  bottom: "conv15"
  top: "conv15"
}
layer {
  name: "conv16_new"
  type: "Convolution"
  bottom: "conv15"
  top: "conv16_new"
  param {
    lr_mult: 1
    decay_mult: 1
  }
  convolution_param {
    num_output: 512
    bias_term: true
    kernel_size: 1
    weight_filler {
      type: "msra"
    }
  }
}
layer {
  name: "conv16_new/relu"
  type: "ReLU"
  bottom: "conv16_new"
  top: "conv16_new"
}
layer {
  name: "upsample_new"
  type: "Upsample"
  bottom: "conv16_new"
  top: "upsample_new"
  upsample_param {
    scale: 2
  }
}
layer {
  name: "conv17/dw"
  type: "DepthwiseConvolution"
  bottom: "conv11"
  top: "conv17/dw"
  param {
    lr_mult: 1
    decay_mult: 1
  }
  convolution_param {
    num_output: 512
    bias_term: true
    pad: 1
    kernel_size: 3
    group: 512
    weight_filler {
      type: "msra"
    }
    engine: CAFFE
  }
}
layer {
  name: "conv17/dw/relu"
  type: "ReLU"
  bottom: "conv17/dw"
  top: "conv17/dw"
}
layer {
  name: "conv17"
  type: "Convolution"
  bottom: "conv17/dw"
  top: "conv17"
  param {
    lr_mult: 1
    decay_mult: 1
  }
  convolution_param {
    num_output: 512
    bias_term: true
    kernel_size: 1
    weight_filler {
      type: "msra"
    }
  }
}
layer {
  name: "conv17/relu"
  type: "ReLU"
  bottom: "conv17"
  top: "conv17"
}
layer {
  name: "conv17/sum"
  type: "Eltwise"
  bottom: "upsample_new"
  bottom: "conv17"
  top: "conv17/sum"
}
layer {
  name: "conv18_plus"
  type: "Convolution"
  bottom: "conv17/sum"
  top: "conv18_plus"
  param {
    lr_mult: 1
    decay_mult: 1
  }
  convolution_param {
    num_output: 512
    bias_term: true
    kernel_size: 1
    weight_filler {
      type: "msra"
    }
  }
}
layer {
  name: "conv18_plus/relu"
  type: "ReLU"
  bottom: "conv18_plus"
  top: "conv18_plus"
}
layer {
  name: "conv18/dw"
  type: "DepthwiseConvolution"
  bottom: "conv18_plus"
  top: "conv18/dw"
  param {
    lr_mult: 1
    decay_mult: 1
  }
  convolution_param {
    num_output: 512
    bias_term: true
    pad: 1
    kernel_size: 3
    group: 512
    weight_filler {
      type: "msra"
    }
    engine: CAFFE
  }
}
layer {
  name: "conv18/dw/relu"
  type: "ReLU"
  bottom: "conv18/dw"
  top: "conv18/dw"
}
layer {
  name: "conv18_new"
  type: "Convolution"
  bottom: "conv18/dw"
  top: "conv18_new"
  param {
    lr_mult: 1
    decay_mult: 1
  }
  convolution_param {
    num_output: 1024
    bias_term: true
    kernel_size: 1
    weight_filler {
      type: "msra"
    }
  }
}
layer {
  name: "conv18_new/relu"
  type: "ReLU"
  bottom: "conv18_new"
  top: "conv18_new"
}
layer {
  name: "conv22"
  type: "Convolution"
  bottom: "conv15"
  top: "conv22"
  param {
    lr_mult: 1
    decay_mult: 1
  }
  param {
    lr_mult: 2
    decay_mult: 0
  }
  convolution_param {
    num_output: 255
    bias_term: true
    pad: 0
    kernel_size: 1
    stride: 1
    weight_filler {
      type: "xavier"
    }
    bias_filler {
      value: 0
    }
  }
}
layer {
  name: "conv23_new"
  type: "Convolution"
  bottom: "conv18_new"
  top: "conv23_new"
  param {
    lr_mult: 1
    decay_mult: 1
  }
  param {
    lr_mult: 2
    decay_mult: 0
  }
  convolution_param {
    num_output: 255
    bias_term: true
    pad: 0
    kernel_size: 1
    stride: 1
    weight_filler {
      type: "xavier"
    }
    bias_filler {
      value: 0
    }
  }
}
I0129 09:01:44.359838 32491 layer_factory.hpp:77] Creating layer data
I0129 09:01:44.359846 32491 net.cpp:86] Creating Layer data
I0129 09:01:44.359850 32491 net.cpp:382] data -> data
I0129 09:01:44.377480 32491 net.cpp:124] Setting up data
I0129 09:01:44.377503 32491 net.cpp:131] Top shape: 1 3 416 416 (519168)
I0129 09:01:44.377506 32491 net.cpp:139] Memory required for data: 2076672
I0129 09:01:44.377511 32491 layer_factory.hpp:77] Creating layer conv0
I0129 09:01:44.377521 32491 net.cpp:86] Creating Layer conv0
I0129 09:01:44.377526 32491 net.cpp:408] conv0 <- data
I0129 09:01:44.377530 32491 net.cpp:382] conv0 -> conv0
I0129 09:01:44.378756 32491 net.cpp:124] Setting up conv0
I0129 09:01:44.378769 32491 net.cpp:131] Top shape: 1 32 208 208 (1384448)
I0129 09:01:44.378772 32491 net.cpp:139] Memory required for data: 7614464
I0129 09:01:44.378787 32491 layer_factory.hpp:77] Creating layer conv0/relu
I0129 09:01:44.378794 32491 net.cpp:86] Creating Layer conv0/relu
I0129 09:01:44.378796 32491 net.cpp:408] conv0/relu <- conv0
I0129 09:01:44.378800 32491 net.cpp:369] conv0/relu -> conv0 (in-place)
I0129 09:01:44.378805 32491 net.cpp:124] Setting up conv0/relu
I0129 09:01:44.378808 32491 net.cpp:131] Top shape: 1 32 208 208 (1384448)
I0129 09:01:44.378810 32491 net.cpp:139] Memory required for data: 13152256
I0129 09:01:44.378813 32491 layer_factory.hpp:77] Creating layer conv1/dw
I0129 09:01:44.378819 32491 net.cpp:86] Creating Layer conv1/dw
I0129 09:01:44.378823 32491 net.cpp:408] conv1/dw <- conv0
I0129 09:01:44.378826 32491 net.cpp:382] conv1/dw -> conv1/dw
I0129 09:01:44.379012 32491 net.cpp:124] Setting up conv1/dw
I0129 09:01:44.379019 32491 net.cpp:131] Top shape: 1 32 208 208 (1384448)
I0129 09:01:44.379022 32491 net.cpp:139] Memory required for data: 18690048
I0129 09:01:44.379038 32491 layer_factory.hpp:77] Creating layer conv1/dw/relu
I0129 09:01:44.379042 32491 net.cpp:86] Creating Layer conv1/dw/relu
I0129 09:01:44.379045 32491 net.cpp:408] conv1/dw/relu <- conv1/dw
I0129 09:01:44.379048 32491 net.cpp:369] conv1/dw/relu -> conv1/dw (in-place)
I0129 09:01:44.379052 32491 net.cpp:124] Setting up conv1/dw/relu
I0129 09:01:44.379055 32491 net.cpp:131] Top shape: 1 32 208 208 (1384448)
I0129 09:01:44.379057 32491 net.cpp:139] Memory required for data: 24227840
I0129 09:01:44.379060 32491 layer_factory.hpp:77] Creating layer conv1
I0129 09:01:44.379065 32491 net.cpp:86] Creating Layer conv1
I0129 09:01:44.379068 32491 net.cpp:408] conv1 <- conv1/dw
I0129 09:01:44.379072 32491 net.cpp:382] conv1 -> conv1
I0129 09:01:44.379765 32491 net.cpp:124] Setting up conv1
I0129 09:01:44.379775 32491 net.cpp:131] Top shape: 1 64 208 208 (2768896)
I0129 09:01:44.379776 32491 net.cpp:139] Memory required for data: 35303424
I0129 09:01:44.379781 32491 layer_factory.hpp:77] Creating layer conv1/relu
I0129 09:01:44.379786 32491 net.cpp:86] Creating Layer conv1/relu
I0129 09:01:44.379788 32491 net.cpp:408] conv1/relu <- conv1
I0129 09:01:44.379792 32491 net.cpp:369] conv1/relu -> conv1 (in-place)
I0129 09:01:44.379796 32491 net.cpp:124] Setting up conv1/relu
I0129 09:01:44.379799 32491 net.cpp:131] Top shape: 1 64 208 208 (2768896)
I0129 09:01:44.379802 32491 net.cpp:139] Memory required for data: 46379008
I0129 09:01:44.379804 32491 layer_factory.hpp:77] Creating layer conv2/dw
I0129 09:01:44.379809 32491 net.cpp:86] Creating Layer conv2/dw
I0129 09:01:44.379812 32491 net.cpp:408] conv2/dw <- conv1
I0129 09:01:44.379815 32491 net.cpp:382] conv2/dw -> conv2/dw
I0129 09:01:44.380455 32491 net.cpp:124] Setting up conv2/dw
I0129 09:01:44.380465 32491 net.cpp:131] Top shape: 1 64 104 104 (692224)
I0129 09:01:44.380466 32491 net.cpp:139] Memory required for data: 49147904
I0129 09:01:44.380471 32491 layer_factory.hpp:77] Creating layer conv2/dw/relu
I0129 09:01:44.380475 32491 net.cpp:86] Creating Layer conv2/dw/relu
I0129 09:01:44.380477 32491 net.cpp:408] conv2/dw/relu <- conv2/dw
I0129 09:01:44.380481 32491 net.cpp:369] conv2/dw/relu -> conv2/dw (in-place)
I0129 09:01:44.380486 32491 net.cpp:124] Setting up conv2/dw/relu
I0129 09:01:44.380489 32491 net.cpp:131] Top shape: 1 64 104 104 (692224)
I0129 09:01:44.380492 32491 net.cpp:139] Memory required for data: 51916800
I0129 09:01:44.380494 32491 layer_factory.hpp:77] Creating layer conv2
I0129 09:01:44.380499 32491 net.cpp:86] Creating Layer conv2
I0129 09:01:44.380501 32491 net.cpp:408] conv2 <- conv2/dw
I0129 09:01:44.380506 32491 net.cpp:382] conv2 -> conv2
I0129 09:01:44.380707 32491 net.cpp:124] Setting up conv2
I0129 09:01:44.380713 32491 net.cpp:131] Top shape: 1 128 104 104 (1384448)
I0129 09:01:44.380717 32491 net.cpp:139] Memory required for data: 57454592
I0129 09:01:44.380720 32491 layer_factory.hpp:77] Creating layer conv2/relu
I0129 09:01:44.380724 32491 net.cpp:86] Creating Layer conv2/relu
I0129 09:01:44.380726 32491 net.cpp:408] conv2/relu <- conv2
I0129 09:01:44.380729 32491 net.cpp:369] conv2/relu -> conv2 (in-place)
I0129 09:01:44.380733 32491 net.cpp:124] Setting up conv2/relu
I0129 09:01:44.380738 32491 net.cpp:131] Top shape: 1 128 104 104 (1384448)
I0129 09:01:44.380741 32491 net.cpp:139] Memory required for data: 62992384
I0129 09:01:44.380743 32491 layer_factory.hpp:77] Creating layer conv3/dw
I0129 09:01:44.380764 32491 net.cpp:86] Creating Layer conv3/dw
I0129 09:01:44.380765 32491 net.cpp:408] conv3/dw <- conv2
I0129 09:01:44.380769 32491 net.cpp:382] conv3/dw -> conv3/dw
I0129 09:01:44.380929 32491 net.cpp:124] Setting up conv3/dw
I0129 09:01:44.380935 32491 net.cpp:131] Top shape: 1 128 104 104 (1384448)
I0129 09:01:44.380937 32491 net.cpp:139] Memory required for data: 68530176
I0129 09:01:44.380941 32491 layer_factory.hpp:77] Creating layer conv3/dw/relu
I0129 09:01:44.380946 32491 net.cpp:86] Creating Layer conv3/dw/relu
I0129 09:01:44.380949 32491 net.cpp:408] conv3/dw/relu <- conv3/dw
I0129 09:01:44.380960 32491 net.cpp:369] conv3/dw/relu -> conv3/dw (in-place)
I0129 09:01:44.380964 32491 net.cpp:124] Setting up conv3/dw/relu
I0129 09:01:44.380966 32491 net.cpp:131] Top shape: 1 128 104 104 (1384448)
I0129 09:01:44.380970 32491 net.cpp:139] Memory required for data: 74067968
I0129 09:01:44.380971 32491 layer_factory.hpp:77] Creating layer conv3
I0129 09:01:44.380976 32491 net.cpp:86] Creating Layer conv3
I0129 09:01:44.380980 32491 net.cpp:408] conv3 <- conv3/dw
I0129 09:01:44.380983 32491 net.cpp:382] conv3 -> conv3
I0129 09:01:44.381250 32491 net.cpp:124] Setting up conv3
I0129 09:01:44.381255 32491 net.cpp:131] Top shape: 1 128 104 104 (1384448)
I0129 09:01:44.381258 32491 net.cpp:139] Memory required for data: 79605760
I0129 09:01:44.381261 32491 layer_factory.hpp:77] Creating layer conv3/relu
I0129 09:01:44.381265 32491 net.cpp:86] Creating Layer conv3/relu
I0129 09:01:44.381268 32491 net.cpp:408] conv3/relu <- conv3
I0129 09:01:44.381271 32491 net.cpp:369] conv3/relu -> conv3 (in-place)
I0129 09:01:44.381274 32491 net.cpp:124] Setting up conv3/relu
I0129 09:01:44.381278 32491 net.cpp:131] Top shape: 1 128 104 104 (1384448)
I0129 09:01:44.381279 32491 net.cpp:139] Memory required for data: 85143552
I0129 09:01:44.381281 32491 layer_factory.hpp:77] Creating layer conv4/dw
I0129 09:01:44.381286 32491 net.cpp:86] Creating Layer conv4/dw
I0129 09:01:44.381289 32491 net.cpp:408] conv4/dw <- conv3
I0129 09:01:44.381292 32491 net.cpp:382] conv4/dw -> conv4/dw
I0129 09:01:44.381436 32491 net.cpp:124] Setting up conv4/dw
I0129 09:01:44.381443 32491 net.cpp:131] Top shape: 1 128 52 52 (346112)
I0129 09:01:44.381444 32491 net.cpp:139] Memory required for data: 86528000
I0129 09:01:44.381448 32491 layer_factory.hpp:77] Creating layer conv4/dw/relu
I0129 09:01:44.381453 32491 net.cpp:86] Creating Layer conv4/dw/relu
I0129 09:01:44.381455 32491 net.cpp:408] conv4/dw/relu <- conv4/dw
I0129 09:01:44.381458 32491 net.cpp:369] conv4/dw/relu -> conv4/dw (in-place)
I0129 09:01:44.381461 32491 net.cpp:124] Setting up conv4/dw/relu
I0129 09:01:44.381464 32491 net.cpp:131] Top shape: 1 128 52 52 (346112)
I0129 09:01:44.381466 32491 net.cpp:139] Memory required for data: 87912448
I0129 09:01:44.381469 32491 layer_factory.hpp:77] Creating layer conv4
I0129 09:01:44.381472 32491 net.cpp:86] Creating Layer conv4
I0129 09:01:44.381475 32491 net.cpp:408] conv4 <- conv4/dw
I0129 09:01:44.381479 32491 net.cpp:382] conv4 -> conv4
I0129 09:01:44.381846 32491 net.cpp:124] Setting up conv4
I0129 09:01:44.381851 32491 net.cpp:131] Top shape: 1 256 52 52 (692224)
I0129 09:01:44.381855 32491 net.cpp:139] Memory required for data: 90681344
I0129 09:01:44.381858 32491 layer_factory.hpp:77] Creating layer conv4/relu
I0129 09:01:44.381863 32491 net.cpp:86] Creating Layer conv4/relu
I0129 09:01:44.381866 32491 net.cpp:408] conv4/relu <- conv4
I0129 09:01:44.381870 32491 net.cpp:369] conv4/relu -> conv4 (in-place)
I0129 09:01:44.381873 32491 net.cpp:124] Setting up conv4/relu
I0129 09:01:44.381876 32491 net.cpp:131] Top shape: 1 256 52 52 (692224)
I0129 09:01:44.381880 32491 net.cpp:139] Memory required for data: 93450240
I0129 09:01:44.381881 32491 layer_factory.hpp:77] Creating layer conv5/dw
I0129 09:01:44.381901 32491 net.cpp:86] Creating Layer conv5/dw
I0129 09:01:44.381904 32491 net.cpp:408] conv5/dw <- conv4
I0129 09:01:44.381907 32491 net.cpp:382] conv5/dw -> conv5/dw
I0129 09:01:44.382107 32491 net.cpp:124] Setting up conv5/dw
I0129 09:01:44.382113 32491 net.cpp:131] Top shape: 1 256 52 52 (692224)
I0129 09:01:44.382115 32491 net.cpp:139] Memory required for data: 96219136
I0129 09:01:44.382119 32491 layer_factory.hpp:77] Creating layer conv5/dw/relu
I0129 09:01:44.382123 32491 net.cpp:86] Creating Layer conv5/dw/relu
I0129 09:01:44.382125 32491 net.cpp:408] conv5/dw/relu <- conv5/dw
I0129 09:01:44.382128 32491 net.cpp:369] conv5/dw/relu -> conv5/dw (in-place)
I0129 09:01:44.382133 32491 net.cpp:124] Setting up conv5/dw/relu
I0129 09:01:44.382136 32491 net.cpp:131] Top shape: 1 256 52 52 (692224)
I0129 09:01:44.382139 32491 net.cpp:139] Memory required for data: 98988032
I0129 09:01:44.382164 32491 layer_factory.hpp:77] Creating layer conv5
I0129 09:01:44.382169 32491 net.cpp:86] Creating Layer conv5
I0129 09:01:44.382171 32491 net.cpp:408] conv5 <- conv5/dw
I0129 09:01:44.382175 32491 net.cpp:382] conv5 -> conv5
I0129 09:01:44.382756 32491 net.cpp:124] Setting up conv5
I0129 09:01:44.382762 32491 net.cpp:131] Top shape: 1 256 52 52 (692224)
I0129 09:01:44.382764 32491 net.cpp:139] Memory required for data: 101756928
I0129 09:01:44.382768 32491 layer_factory.hpp:77] Creating layer conv5/relu
I0129 09:01:44.382771 32491 net.cpp:86] Creating Layer conv5/relu
I0129 09:01:44.382774 32491 net.cpp:408] conv5/relu <- conv5
I0129 09:01:44.382777 32491 net.cpp:369] conv5/relu -> conv5 (in-place)
I0129 09:01:44.382781 32491 net.cpp:124] Setting up conv5/relu
I0129 09:01:44.382784 32491 net.cpp:131] Top shape: 1 256 52 52 (692224)
I0129 09:01:44.382786 32491 net.cpp:139] Memory required for data: 104525824
I0129 09:01:44.382788 32491 layer_factory.hpp:77] Creating layer conv6/dw
I0129 09:01:44.382793 32491 net.cpp:86] Creating Layer conv6/dw
I0129 09:01:44.382796 32491 net.cpp:408] conv6/dw <- conv5
I0129 09:01:44.382798 32491 net.cpp:382] conv6/dw -> conv6/dw
I0129 09:01:44.382962 32491 net.cpp:124] Setting up conv6/dw
I0129 09:01:44.382967 32491 net.cpp:131] Top shape: 1 256 26 26 (173056)
I0129 09:01:44.382969 32491 net.cpp:139] Memory required for data: 105218048
I0129 09:01:44.382973 32491 layer_factory.hpp:77] Creating layer conv6/dw/relu
I0129 09:01:44.382977 32491 net.cpp:86] Creating Layer conv6/dw/relu
I0129 09:01:44.382979 32491 net.cpp:408] conv6/dw/relu <- conv6/dw
I0129 09:01:44.382982 32491 net.cpp:369] conv6/dw/relu -> conv6/dw (in-place)
I0129 09:01:44.382987 32491 net.cpp:124] Setting up conv6/dw/relu
I0129 09:01:44.382988 32491 net.cpp:131] Top shape: 1 256 26 26 (173056)
I0129 09:01:44.382992 32491 net.cpp:139] Memory required for data: 105910272
I0129 09:01:44.382993 32491 layer_factory.hpp:77] Creating layer conv6
I0129 09:01:44.382997 32491 net.cpp:86] Creating Layer conv6
I0129 09:01:44.383000 32491 net.cpp:408] conv6 <- conv6/dw
I0129 09:01:44.383003 32491 net.cpp:382] conv6 -> conv6
I0129 09:01:44.384460 32491 net.cpp:124] Setting up conv6
I0129 09:01:44.384469 32491 net.cpp:131] Top shape: 1 512 26 26 (346112)
I0129 09:01:44.384472 32491 net.cpp:139] Memory required for data: 107294720
I0129 09:01:44.384475 32491 layer_factory.hpp:77] Creating layer conv6/relu
I0129 09:01:44.384479 32491 net.cpp:86] Creating Layer conv6/relu
I0129 09:01:44.384482 32491 net.cpp:408] conv6/relu <- conv6
I0129 09:01:44.384485 32491 net.cpp:369] conv6/relu -> conv6 (in-place)
I0129 09:01:44.384490 32491 net.cpp:124] Setting up conv6/relu
I0129 09:01:44.384492 32491 net.cpp:131] Top shape: 1 512 26 26 (346112)
I0129 09:01:44.384495 32491 net.cpp:139] Memory required for data: 108679168
I0129 09:01:44.384497 32491 layer_factory.hpp:77] Creating layer conv7/dw
I0129 09:01:44.384502 32491 net.cpp:86] Creating Layer conv7/dw
I0129 09:01:44.384505 32491 net.cpp:408] conv7/dw <- conv6
I0129 09:01:44.384510 32491 net.cpp:382] conv7/dw -> conv7/dw
I0129 09:01:44.384718 32491 net.cpp:124] Setting up conv7/dw
I0129 09:01:44.384723 32491 net.cpp:131] Top shape: 1 512 26 26 (346112)
I0129 09:01:44.384727 32491 net.cpp:139] Memory required for data: 110063616
I0129 09:01:44.384729 32491 layer_factory.hpp:77] Creating layer conv7/dw/relu
I0129 09:01:44.384732 32491 net.cpp:86] Creating Layer conv7/dw/relu
I0129 09:01:44.384735 32491 net.cpp:408] conv7/dw/relu <- conv7/dw
I0129 09:01:44.384739 32491 net.cpp:369] conv7/dw/relu -> conv7/dw (in-place)
I0129 09:01:44.384742 32491 net.cpp:124] Setting up conv7/dw/relu
I0129 09:01:44.384745 32491 net.cpp:131] Top shape: 1 512 26 26 (346112)
I0129 09:01:44.384747 32491 net.cpp:139] Memory required for data: 111448064
I0129 09:01:44.384749 32491 layer_factory.hpp:77] Creating layer conv7
I0129 09:01:44.384753 32491 net.cpp:86] Creating Layer conv7
I0129 09:01:44.384755 32491 net.cpp:408] conv7 <- conv7/dw
I0129 09:01:44.384759 32491 net.cpp:382] conv7 -> conv7
I0129 09:01:44.386538 32491 net.cpp:124] Setting up conv7
I0129 09:01:44.386544 32491 net.cpp:131] Top shape: 1 512 26 26 (346112)
I0129 09:01:44.386546 32491 net.cpp:139] Memory required for data: 112832512
I0129 09:01:44.386550 32491 layer_factory.hpp:77] Creating layer conv7/relu
I0129 09:01:44.386554 32491 net.cpp:86] Creating Layer conv7/relu
I0129 09:01:44.386556 32491 net.cpp:408] conv7/relu <- conv7
I0129 09:01:44.386559 32491 net.cpp:369] conv7/relu -> conv7 (in-place)
I0129 09:01:44.386562 32491 net.cpp:124] Setting up conv7/relu
I0129 09:01:44.386565 32491 net.cpp:131] Top shape: 1 512 26 26 (346112)
I0129 09:01:44.386567 32491 net.cpp:139] Memory required for data: 114216960
I0129 09:01:44.386569 32491 layer_factory.hpp:77] Creating layer conv8/dw
I0129 09:01:44.386575 32491 net.cpp:86] Creating Layer conv8/dw
I0129 09:01:44.386577 32491 net.cpp:408] conv8/dw <- conv7
I0129 09:01:44.386581 32491 net.cpp:382] conv8/dw -> conv8/dw
I0129 09:01:44.386757 32491 net.cpp:124] Setting up conv8/dw
I0129 09:01:44.386762 32491 net.cpp:131] Top shape: 1 512 26 26 (346112)
I0129 09:01:44.386765 32491 net.cpp:139] Memory required for data: 115601408
I0129 09:01:44.386768 32491 layer_factory.hpp:77] Creating layer conv8/dw/relu
I0129 09:01:44.386773 32491 net.cpp:86] Creating Layer conv8/dw/relu
I0129 09:01:44.386776 32491 net.cpp:408] conv8/dw/relu <- conv8/dw
I0129 09:01:44.386780 32491 net.cpp:369] conv8/dw/relu -> conv8/dw (in-place)
I0129 09:01:44.386782 32491 net.cpp:124] Setting up conv8/dw/relu
I0129 09:01:44.386785 32491 net.cpp:131] Top shape: 1 512 26 26 (346112)
I0129 09:01:44.386787 32491 net.cpp:139] Memory required for data: 116985856
I0129 09:01:44.386790 32491 layer_factory.hpp:77] Creating layer conv8
I0129 09:01:44.386795 32491 net.cpp:86] Creating Layer conv8
I0129 09:01:44.386796 32491 net.cpp:408] conv8 <- conv8/dw
I0129 09:01:44.386801 32491 net.cpp:382] conv8 -> conv8
I0129 09:01:44.389096 32491 net.cpp:124] Setting up conv8
I0129 09:01:44.389106 32491 net.cpp:131] Top shape: 1 512 26 26 (346112)
I0129 09:01:44.389108 32491 net.cpp:139] Memory required for data: 118370304
I0129 09:01:44.389116 32491 layer_factory.hpp:77] Creating layer conv8/relu
I0129 09:01:44.389122 32491 net.cpp:86] Creating Layer conv8/relu
I0129 09:01:44.389124 32491 net.cpp:408] conv8/relu <- conv8
I0129 09:01:44.389127 32491 net.cpp:369] conv8/relu -> conv8 (in-place)
I0129 09:01:44.389132 32491 net.cpp:124] Setting up conv8/relu
I0129 09:01:44.389134 32491 net.cpp:131] Top shape: 1 512 26 26 (346112)
I0129 09:01:44.389137 32491 net.cpp:139] Memory required for data: 119754752
I0129 09:01:44.389138 32491 layer_factory.hpp:77] Creating layer conv9/dw
I0129 09:01:44.389143 32491 net.cpp:86] Creating Layer conv9/dw
I0129 09:01:44.389147 32491 net.cpp:408] conv9/dw <- conv8
I0129 09:01:44.389150 32491 net.cpp:382] conv9/dw -> conv9/dw
I0129 09:01:44.389358 32491 net.cpp:124] Setting up conv9/dw
I0129 09:01:44.389364 32491 net.cpp:131] Top shape: 1 512 26 26 (346112)
I0129 09:01:44.389366 32491 net.cpp:139] Memory required for data: 121139200
I0129 09:01:44.389370 32491 layer_factory.hpp:77] Creating layer conv9/dw/relu
I0129 09:01:44.389374 32491 net.cpp:86] Creating Layer conv9/dw/relu
I0129 09:01:44.389377 32491 net.cpp:408] conv9/dw/relu <- conv9/dw
I0129 09:01:44.389380 32491 net.cpp:369] conv9/dw/relu -> conv9/dw (in-place)
I0129 09:01:44.389384 32491 net.cpp:124] Setting up conv9/dw/relu
I0129 09:01:44.389386 32491 net.cpp:131] Top shape: 1 512 26 26 (346112)
I0129 09:01:44.389389 32491 net.cpp:139] Memory required for data: 122523648
I0129 09:01:44.389390 32491 layer_factory.hpp:77] Creating layer conv9
I0129 09:01:44.389395 32491 net.cpp:86] Creating Layer conv9
I0129 09:01:44.389398 32491 net.cpp:408] conv9 <- conv9/dw
I0129 09:01:44.389416 32491 net.cpp:382] conv9 -> conv9
I0129 09:01:44.391165 32491 net.cpp:124] Setting up conv9
I0129 09:01:44.391171 32491 net.cpp:131] Top shape: 1 512 26 26 (346112)
I0129 09:01:44.391175 32491 net.cpp:139] Memory required for data: 123908096
I0129 09:01:44.391177 32491 layer_factory.hpp:77] Creating layer conv9/relu
I0129 09:01:44.391189 32491 net.cpp:86] Creating Layer conv9/relu
I0129 09:01:44.391192 32491 net.cpp:408] conv9/relu <- conv9
I0129 09:01:44.391196 32491 net.cpp:369] conv9/relu -> conv9 (in-place)
I0129 09:01:44.391201 32491 net.cpp:124] Setting up conv9/relu
I0129 09:01:44.391203 32491 net.cpp:131] Top shape: 1 512 26 26 (346112)
I0129 09:01:44.391206 32491 net.cpp:139] Memory required for data: 125292544
I0129 09:01:44.391208 32491 layer_factory.hpp:77] Creating layer conv10/dw
I0129 09:01:44.391211 32491 net.cpp:86] Creating Layer conv10/dw
I0129 09:01:44.391214 32491 net.cpp:408] conv10/dw <- conv9
I0129 09:01:44.391218 32491 net.cpp:382] conv10/dw -> conv10/dw
I0129 09:01:44.391394 32491 net.cpp:124] Setting up conv10/dw
I0129 09:01:44.391399 32491 net.cpp:131] Top shape: 1 512 26 26 (346112)
I0129 09:01:44.391402 32491 net.cpp:139] Memory required for data: 126676992
I0129 09:01:44.391405 32491 layer_factory.hpp:77] Creating layer conv10/dw/relu
I0129 09:01:44.391409 32491 net.cpp:86] Creating Layer conv10/dw/relu
I0129 09:01:44.391412 32491 net.cpp:408] conv10/dw/relu <- conv10/dw
I0129 09:01:44.391414 32491 net.cpp:369] conv10/dw/relu -> conv10/dw (in-place)
I0129 09:01:44.391418 32491 net.cpp:124] Setting up conv10/dw/relu
I0129 09:01:44.391422 32491 net.cpp:131] Top shape: 1 512 26 26 (346112)
I0129 09:01:44.391424 32491 net.cpp:139] Memory required for data: 128061440
I0129 09:01:44.391427 32491 layer_factory.hpp:77] Creating layer conv10
I0129 09:01:44.391429 32491 net.cpp:86] Creating Layer conv10
I0129 09:01:44.391434 32491 net.cpp:408] conv10 <- conv10/dw
I0129 09:01:44.391438 32491 net.cpp:382] conv10 -> conv10
I0129 09:01:44.394183 32491 net.cpp:124] Setting up conv10
I0129 09:01:44.394197 32491 net.cpp:131] Top shape: 1 512 26 26 (346112)
I0129 09:01:44.394201 32491 net.cpp:139] Memory required for data: 129445888
I0129 09:01:44.394206 32491 layer_factory.hpp:77] Creating layer conv10/relu
I0129 09:01:44.394212 32491 net.cpp:86] Creating Layer conv10/relu
I0129 09:01:44.394214 32491 net.cpp:408] conv10/relu <- conv10
I0129 09:01:44.394218 32491 net.cpp:369] conv10/relu -> conv10 (in-place)
I0129 09:01:44.394223 32491 net.cpp:124] Setting up conv10/relu
I0129 09:01:44.394227 32491 net.cpp:131] Top shape: 1 512 26 26 (346112)
I0129 09:01:44.394228 32491 net.cpp:139] Memory required for data: 130830336
I0129 09:01:44.394230 32491 layer_factory.hpp:77] Creating layer conv11/dw
I0129 09:01:44.394237 32491 net.cpp:86] Creating Layer conv11/dw
I0129 09:01:44.394239 32491 net.cpp:408] conv11/dw <- conv10
I0129 09:01:44.394243 32491 net.cpp:382] conv11/dw -> conv11/dw
I0129 09:01:44.394454 32491 net.cpp:124] Setting up conv11/dw
I0129 09:01:44.394459 32491 net.cpp:131] Top shape: 1 512 26 26 (346112)
I0129 09:01:44.394461 32491 net.cpp:139] Memory required for data: 132214784
I0129 09:01:44.394465 32491 layer_factory.hpp:77] Creating layer conv11/dw/relu
I0129 09:01:44.394470 32491 net.cpp:86] Creating Layer conv11/dw/relu
I0129 09:01:44.394472 32491 net.cpp:408] conv11/dw/relu <- conv11/dw
I0129 09:01:44.394476 32491 net.cpp:369] conv11/dw/relu -> conv11/dw (in-place)
I0129 09:01:44.394479 32491 net.cpp:124] Setting up conv11/dw/relu
I0129 09:01:44.394482 32491 net.cpp:131] Top shape: 1 512 26 26 (346112)
I0129 09:01:44.394484 32491 net.cpp:139] Memory required for data: 133599232
I0129 09:01:44.394486 32491 layer_factory.hpp:77] Creating layer conv11
I0129 09:01:44.394492 32491 net.cpp:86] Creating Layer conv11
I0129 09:01:44.394495 32491 net.cpp:408] conv11 <- conv11/dw
I0129 09:01:44.394513 32491 net.cpp:382] conv11 -> conv11
I0129 09:01:44.396292 32491 net.cpp:124] Setting up conv11
I0129 09:01:44.396298 32491 net.cpp:131] Top shape: 1 512 26 26 (346112)
I0129 09:01:44.396301 32491 net.cpp:139] Memory required for data: 134983680
I0129 09:01:44.396304 32491 layer_factory.hpp:77] Creating layer conv11/relu
I0129 09:01:44.396307 32491 net.cpp:86] Creating Layer conv11/relu
I0129 09:01:44.396311 32491 net.cpp:408] conv11/relu <- conv11
I0129 09:01:44.396313 32491 net.cpp:369] conv11/relu -> conv11 (in-place)
I0129 09:01:44.396327 32491 net.cpp:124] Setting up conv11/relu
I0129 09:01:44.396332 32491 net.cpp:131] Top shape: 1 512 26 26 (346112)
I0129 09:01:44.396333 32491 net.cpp:139] Memory required for data: 136368128
I0129 09:01:44.396335 32491 layer_factory.hpp:77] Creating layer conv11_conv11/relu_0_split
I0129 09:01:44.396340 32491 net.cpp:86] Creating Layer conv11_conv11/relu_0_split
I0129 09:01:44.396344 32491 net.cpp:408] conv11_conv11/relu_0_split <- conv11
I0129 09:01:44.396348 32491 net.cpp:382] conv11_conv11/relu_0_split -> conv11_conv11/relu_0_split_0
I0129 09:01:44.396368 32491 net.cpp:382] conv11_conv11/relu_0_split -> conv11_conv11/relu_0_split_1
I0129 09:01:44.396406 32491 net.cpp:124] Setting up conv11_conv11/relu_0_split
I0129 09:01:44.396411 32491 net.cpp:131] Top shape: 1 512 26 26 (346112)
I0129 09:01:44.396433 32491 net.cpp:131] Top shape: 1 512 26 26 (346112)
I0129 09:01:44.396435 32491 net.cpp:139] Memory required for data: 139137024
I0129 09:01:44.396437 32491 layer_factory.hpp:77] Creating layer conv12/dw
I0129 09:01:44.396456 32491 net.cpp:86] Creating Layer conv12/dw
I0129 09:01:44.396458 32491 net.cpp:408] conv12/dw <- conv11_conv11/relu_0_split_0
I0129 09:01:44.396476 32491 net.cpp:382] conv12/dw -> conv12/dw
I0129 09:01:44.396672 32491 net.cpp:124] Setting up conv12/dw
I0129 09:01:44.396678 32491 net.cpp:131] Top shape: 1 512 13 13 (86528)
I0129 09:01:44.396682 32491 net.cpp:139] Memory required for data: 139483136
I0129 09:01:44.396684 32491 layer_factory.hpp:77] Creating layer conv12/dw/relu
I0129 09:01:44.396687 32491 net.cpp:86] Creating Layer conv12/dw/relu
I0129 09:01:44.396690 32491 net.cpp:408] conv12/dw/relu <- conv12/dw
I0129 09:01:44.396694 32491 net.cpp:369] conv12/dw/relu -> conv12/dw (in-place)
I0129 09:01:44.396698 32491 net.cpp:124] Setting up conv12/dw/relu
I0129 09:01:44.396701 32491 net.cpp:131] Top shape: 1 512 13 13 (86528)
I0129 09:01:44.396703 32491 net.cpp:139] Memory required for data: 139829248
I0129 09:01:44.396705 32491 layer_factory.hpp:77] Creating layer conv12
I0129 09:01:44.396710 32491 net.cpp:86] Creating Layer conv12
I0129 09:01:44.396713 32491 net.cpp:408] conv12 <- conv12/dw
I0129 09:01:44.396716 32491 net.cpp:382] conv12 -> conv12
I0129 09:01:44.400625 32491 net.cpp:124] Setting up conv12
I0129 09:01:44.400637 32491 net.cpp:131] Top shape: 1 1024 13 13 (173056)
I0129 09:01:44.400640 32491 net.cpp:139] Memory required for data: 140521472
I0129 09:01:44.400645 32491 layer_factory.hpp:77] Creating layer conv12/relu
I0129 09:01:44.400648 32491 net.cpp:86] Creating Layer conv12/relu
I0129 09:01:44.400651 32491 net.cpp:408] conv12/relu <- conv12
I0129 09:01:44.400656 32491 net.cpp:369] conv12/relu -> conv12 (in-place)
I0129 09:01:44.400661 32491 net.cpp:124] Setting up conv12/relu
I0129 09:01:44.400665 32491 net.cpp:131] Top shape: 1 1024 13 13 (173056)
I0129 09:01:44.400666 32491 net.cpp:139] Memory required for data: 141213696
I0129 09:01:44.400668 32491 layer_factory.hpp:77] Creating layer conv13/dw
I0129 09:01:44.400674 32491 net.cpp:86] Creating Layer conv13/dw
I0129 09:01:44.400677 32491 net.cpp:408] conv13/dw <- conv12
I0129 09:01:44.400681 32491 net.cpp:382] conv13/dw -> conv13/dw
I0129 09:01:44.400892 32491 net.cpp:124] Setting up conv13/dw
I0129 09:01:44.400897 32491 net.cpp:131] Top shape: 1 1024 13 13 (173056)
I0129 09:01:44.400900 32491 net.cpp:139] Memory required for data: 141905920
I0129 09:01:44.400904 32491 layer_factory.hpp:77] Creating layer conv13/dw/relu
I0129 09:01:44.400908 32491 net.cpp:86] Creating Layer conv13/dw/relu
I0129 09:01:44.400913 32491 net.cpp:408] conv13/dw/relu <- conv13/dw
I0129 09:01:44.400915 32491 net.cpp:369] conv13/dw/relu -> conv13/dw (in-place)
I0129 09:01:44.400919 32491 net.cpp:124] Setting up conv13/dw/relu
I0129 09:01:44.400923 32491 net.cpp:131] Top shape: 1 1024 13 13 (173056)
I0129 09:01:44.400925 32491 net.cpp:139] Memory required for data: 142598144
I0129 09:01:44.400928 32491 layer_factory.hpp:77] Creating layer conv13
I0129 09:01:44.400931 32491 net.cpp:86] Creating Layer conv13
I0129 09:01:44.400957 32491 net.cpp:408] conv13 <- conv13/dw
I0129 09:01:44.400964 32491 net.cpp:382] conv13 -> conv13
I0129 09:01:44.408445 32491 net.cpp:124] Setting up conv13
I0129 09:01:44.408465 32491 net.cpp:131] Top shape: 1 1024 13 13 (173056)
I0129 09:01:44.408468 32491 net.cpp:139] Memory required for data: 143290368
I0129 09:01:44.408473 32491 layer_factory.hpp:77] Creating layer conv13/relu
I0129 09:01:44.408479 32491 net.cpp:86] Creating Layer conv13/relu
I0129 09:01:44.408483 32491 net.cpp:408] conv13/relu <- conv13
I0129 09:01:44.408488 32491 net.cpp:369] conv13/relu -> conv13 (in-place)
I0129 09:01:44.408494 32491 net.cpp:124] Setting up conv13/relu
I0129 09:01:44.408498 32491 net.cpp:131] Top shape: 1 1024 13 13 (173056)
I0129 09:01:44.408499 32491 net.cpp:139] Memory required for data: 143982592
I0129 09:01:44.408501 32491 layer_factory.hpp:77] Creating layer conv15/dw
I0129 09:01:44.408507 32491 net.cpp:86] Creating Layer conv15/dw
I0129 09:01:44.408509 32491 net.cpp:408] conv15/dw <- conv13
I0129 09:01:44.408514 32491 net.cpp:382] conv15/dw -> conv15/dw
I0129 09:01:44.408743 32491 net.cpp:124] Setting up conv15/dw
I0129 09:01:44.408751 32491 net.cpp:131] Top shape: 1 1024 13 13 (173056)
I0129 09:01:44.408752 32491 net.cpp:139] Memory required for data: 144674816
I0129 09:01:44.408756 32491 layer_factory.hpp:77] Creating layer conv15/dw/relu
I0129 09:01:44.408761 32491 net.cpp:86] Creating Layer conv15/dw/relu
I0129 09:01:44.408763 32491 net.cpp:408] conv15/dw/relu <- conv15/dw
I0129 09:01:44.408766 32491 net.cpp:369] conv15/dw/relu -> conv15/dw (in-place)
I0129 09:01:44.408771 32491 net.cpp:124] Setting up conv15/dw/relu
I0129 09:01:44.408774 32491 net.cpp:131] Top shape: 1 1024 13 13 (173056)
I0129 09:01:44.408777 32491 net.cpp:139] Memory required for data: 145367040
I0129 09:01:44.408779 32491 layer_factory.hpp:77] Creating layer conv15
I0129 09:01:44.408783 32491 net.cpp:86] Creating Layer conv15
I0129 09:01:44.408802 32491 net.cpp:408] conv15 <- conv15/dw
I0129 09:01:44.408805 32491 net.cpp:382] conv15 -> conv15
I0129 09:01:44.416254 32491 net.cpp:124] Setting up conv15
I0129 09:01:44.416271 32491 net.cpp:131] Top shape: 1 1024 13 13 (173056)
I0129 09:01:44.416275 32491 net.cpp:139] Memory required for data: 146059264
I0129 09:01:44.416280 32491 layer_factory.hpp:77] Creating layer conv15/relu
I0129 09:01:44.416301 32491 net.cpp:86] Creating Layer conv15/relu
I0129 09:01:44.416303 32491 net.cpp:408] conv15/relu <- conv15
I0129 09:01:44.416308 32491 net.cpp:369] conv15/relu -> conv15 (in-place)
I0129 09:01:44.416313 32491 net.cpp:124] Setting up conv15/relu
I0129 09:01:44.416316 32491 net.cpp:131] Top shape: 1 1024 13 13 (173056)
I0129 09:01:44.416318 32491 net.cpp:139] Memory required for data: 146751488
I0129 09:01:44.416321 32491 layer_factory.hpp:77] Creating layer conv15_conv15/relu_0_split
I0129 09:01:44.416326 32491 net.cpp:86] Creating Layer conv15_conv15/relu_0_split
I0129 09:01:44.416330 32491 net.cpp:408] conv15_conv15/relu_0_split <- conv15
I0129 09:01:44.416334 32491 net.cpp:382] conv15_conv15/relu_0_split -> conv15_conv15/relu_0_split_0
I0129 09:01:44.416342 32491 net.cpp:382] conv15_conv15/relu_0_split -> conv15_conv15/relu_0_split_1
I0129 09:01:44.416404 32491 net.cpp:124] Setting up conv15_conv15/relu_0_split
I0129 09:01:44.416409 32491 net.cpp:131] Top shape: 1 1024 13 13 (173056)
I0129 09:01:44.416431 32491 net.cpp:131] Top shape: 1 1024 13 13 (173056)
I0129 09:01:44.416433 32491 net.cpp:139] Memory required for data: 148135936
I0129 09:01:44.416435 32491 layer_factory.hpp:77] Creating layer conv16_new
I0129 09:01:44.416442 32491 net.cpp:86] Creating Layer conv16_new
I0129 09:01:44.416460 32491 net.cpp:408] conv16_new <- conv15_conv15/relu_0_split_0
I0129 09:01:44.416465 32491 net.cpp:382] conv16_new -> conv16_new
I0129 09:01:44.420418 32491 net.cpp:124] Setting up conv16_new
I0129 09:01:44.420428 32491 net.cpp:131] Top shape: 1 512 13 13 (86528)
I0129 09:01:44.420429 32491 net.cpp:139] Memory required for data: 148482048
I0129 09:01:44.420449 32491 layer_factory.hpp:77] Creating layer conv16_new/relu
I0129 09:01:44.420464 32491 net.cpp:86] Creating Layer conv16_new/relu
I0129 09:01:44.420467 32491 net.cpp:408] conv16_new/relu <- conv16_new
I0129 09:01:44.420471 32491 net.cpp:369] conv16_new/relu -> conv16_new (in-place)
I0129 09:01:44.420475 32491 net.cpp:124] Setting up conv16_new/relu
I0129 09:01:44.420480 32491 net.cpp:131] Top shape: 1 512 13 13 (86528)
I0129 09:01:44.420482 32491 net.cpp:139] Memory required for data: 148828160
I0129 09:01:44.420485 32491 layer_factory.hpp:77] Creating layer upsample_new
I0129 09:01:44.420490 32491 net.cpp:86] Creating Layer upsample_new
I0129 09:01:44.420509 32491 net.cpp:408] upsample_new <- conv16_new
I0129 09:01:44.420512 32491 net.cpp:382] upsample_new -> upsample_new
I0129 09:01:44.420532 32491 net.cpp:124] Setting up upsample_new
I0129 09:01:44.420549 32491 net.cpp:131] Top shape: 1 512 26 26 (346112)
I0129 09:01:44.420552 32491 net.cpp:139] Memory required for data: 150212608
I0129 09:01:44.420554 32491 layer_factory.hpp:77] Creating layer conv17/dw
I0129 09:01:44.420564 32491 net.cpp:86] Creating Layer conv17/dw
I0129 09:01:44.420567 32491 net.cpp:408] conv17/dw <- conv11_conv11/relu_0_split_1
I0129 09:01:44.420572 32491 net.cpp:382] conv17/dw -> conv17/dw
I0129 09:01:44.420804 32491 net.cpp:124] Setting up conv17/dw
I0129 09:01:44.420809 32491 net.cpp:131] Top shape: 1 512 26 26 (346112)
I0129 09:01:44.420811 32491 net.cpp:139] Memory required for data: 151597056
I0129 09:01:44.420827 32491 layer_factory.hpp:77] Creating layer conv17/dw/relu
I0129 09:01:44.420832 32491 net.cpp:86] Creating Layer conv17/dw/relu
I0129 09:01:44.420850 32491 net.cpp:408] conv17/dw/relu <- conv17/dw
I0129 09:01:44.420852 32491 net.cpp:369] conv17/dw/relu -> conv17/dw (in-place)
I0129 09:01:44.420856 32491 net.cpp:124] Setting up conv17/dw/relu
I0129 09:01:44.420859 32491 net.cpp:131] Top shape: 1 512 26 26 (346112)
I0129 09:01:44.420861 32491 net.cpp:139] Memory required for data: 152981504
I0129 09:01:44.420863 32491 layer_factory.hpp:77] Creating layer conv17
I0129 09:01:44.420868 32491 net.cpp:86] Creating Layer conv17
I0129 09:01:44.420871 32491 net.cpp:408] conv17 <- conv17/dw
I0129 09:01:44.420876 32491 net.cpp:382] conv17 -> conv17
I0129 09:01:44.423204 32491 net.cpp:124] Setting up conv17
I0129 09:01:44.423215 32491 net.cpp:131] Top shape: 1 512 26 26 (346112)
I0129 09:01:44.423218 32491 net.cpp:139] Memory required for data: 154365952
I0129 09:01:44.423236 32491 layer_factory.hpp:77] Creating layer conv17/relu
I0129 09:01:44.423243 32491 net.cpp:86] Creating Layer conv17/relu
I0129 09:01:44.423245 32491 net.cpp:408] conv17/relu <- conv17
I0129 09:01:44.423249 32491 net.cpp:369] conv17/relu -> conv17 (in-place)
I0129 09:01:44.423254 32491 net.cpp:124] Setting up conv17/relu
I0129 09:01:44.423257 32491 net.cpp:131] Top shape: 1 512 26 26 (346112)
I0129 09:01:44.423259 32491 net.cpp:139] Memory required for data: 155750400
I0129 09:01:44.423261 32491 layer_factory.hpp:77] Creating layer conv17/sum
I0129 09:01:44.423265 32491 net.cpp:86] Creating Layer conv17/sum
I0129 09:01:44.423269 32491 net.cpp:408] conv17/sum <- upsample_new
I0129 09:01:44.423272 32491 net.cpp:408] conv17/sum <- conv17
I0129 09:01:44.423276 32491 net.cpp:382] conv17/sum -> conv17/sum
I0129 09:01:44.423321 32491 net.cpp:124] Setting up conv17/sum
I0129 09:01:44.423326 32491 net.cpp:131] Top shape: 1 512 26 26 (346112)
I0129 09:01:44.423327 32491 net.cpp:139] Memory required for data: 157134848
I0129 09:01:44.423329 32491 layer_factory.hpp:77] Creating layer conv18_plus
I0129 09:01:44.423336 32491 net.cpp:86] Creating Layer conv18_plus
I0129 09:01:44.423339 32491 net.cpp:408] conv18_plus <- conv17/sum
I0129 09:01:44.423344 32491 net.cpp:382] conv18_plus -> conv18_plus
I0129 09:01:44.425215 32491 net.cpp:124] Setting up conv18_plus
I0129 09:01:44.425221 32491 net.cpp:131] Top shape: 1 512 26 26 (346112)
I0129 09:01:44.425223 32491 net.cpp:139] Memory required for data: 158519296
I0129 09:01:44.425243 32491 layer_factory.hpp:77] Creating layer conv18_plus/relu
I0129 09:01:44.425258 32491 net.cpp:86] Creating Layer conv18_plus/relu
I0129 09:01:44.425262 32491 net.cpp:408] conv18_plus/relu <- conv18_plus
I0129 09:01:44.425266 32491 net.cpp:369] conv18_plus/relu -> conv18_plus (in-place)
I0129 09:01:44.425269 32491 net.cpp:124] Setting up conv18_plus/relu
I0129 09:01:44.425273 32491 net.cpp:131] Top shape: 1 512 26 26 (346112)
I0129 09:01:44.425276 32491 net.cpp:139] Memory required for data: 159903744
I0129 09:01:44.425279 32491 layer_factory.hpp:77] Creating layer conv18/dw
I0129 09:01:44.425297 32491 net.cpp:86] Creating Layer conv18/dw
I0129 09:01:44.425300 32491 net.cpp:408] conv18/dw <- conv18_plus
I0129 09:01:44.425304 32491 net.cpp:382] conv18/dw -> conv18/dw
I0129 09:01:44.425539 32491 net.cpp:124] Setting up conv18/dw
I0129 09:01:44.425544 32491 net.cpp:131] Top shape: 1 512 26 26 (346112)
I0129 09:01:44.425547 32491 net.cpp:139] Memory required for data: 161288192
I0129 09:01:44.425550 32491 layer_factory.hpp:77] Creating layer conv18/dw/relu
I0129 09:01:44.425568 32491 net.cpp:86] Creating Layer conv18/dw/relu
I0129 09:01:44.425570 32491 net.cpp:408] conv18/dw/relu <- conv18/dw
I0129 09:01:44.425573 32491 net.cpp:369] conv18/dw/relu -> conv18/dw (in-place)
I0129 09:01:44.425577 32491 net.cpp:124] Setting up conv18/dw/relu
I0129 09:01:44.425580 32491 net.cpp:131] Top shape: 1 512 26 26 (346112)
I0129 09:01:44.425582 32491 net.cpp:139] Memory required for data: 162672640
I0129 09:01:44.425585 32491 layer_factory.hpp:77] Creating layer conv18_new
I0129 09:01:44.425590 32491 net.cpp:86] Creating Layer conv18_new
I0129 09:01:44.425595 32491 net.cpp:408] conv18_new <- conv18/dw
I0129 09:01:44.425597 32491 net.cpp:382] conv18_new -> conv18_new
I0129 09:01:44.429421 32491 net.cpp:124] Setting up conv18_new
I0129 09:01:44.429432 32491 net.cpp:131] Top shape: 1 1024 26 26 (692224)
I0129 09:01:44.429435 32491 net.cpp:139] Memory required for data: 165441536
I0129 09:01:44.429453 32491 layer_factory.hpp:77] Creating layer conv18_new/relu
I0129 09:01:44.429460 32491 net.cpp:86] Creating Layer conv18_new/relu
I0129 09:01:44.429462 32491 net.cpp:408] conv18_new/relu <- conv18_new
I0129 09:01:44.429466 32491 net.cpp:369] conv18_new/relu -> conv18_new (in-place)
I0129 09:01:44.429471 32491 net.cpp:124] Setting up conv18_new/relu
I0129 09:01:44.429473 32491 net.cpp:131] Top shape: 1 1024 26 26 (692224)
I0129 09:01:44.429476 32491 net.cpp:139] Memory required for data: 168210432
I0129 09:01:44.429478 32491 layer_factory.hpp:77] Creating layer conv22
I0129 09:01:44.429484 32491 net.cpp:86] Creating Layer conv22
I0129 09:01:44.429487 32491 net.cpp:408] conv22 <- conv15_conv15/relu_0_split_1
I0129 09:01:44.429492 32491 net.cpp:382] conv22 -> conv22
I0129 09:01:44.431239 32491 net.cpp:124] Setting up conv22
I0129 09:01:44.431252 32491 net.cpp:131] Top shape: 1 255 13 13 (43095)
I0129 09:01:44.431254 32491 net.cpp:139] Memory required for data: 168382812
I0129 09:01:44.431272 32491 layer_factory.hpp:77] Creating layer conv23_new
I0129 09:01:44.431279 32491 net.cpp:86] Creating Layer conv23_new
I0129 09:01:44.431282 32491 net.cpp:408] conv23_new <- conv18_new
I0129 09:01:44.431288 32491 net.cpp:382] conv23_new -> conv23_new
I0129 09:01:44.432456 32491 net.cpp:124] Setting up conv23_new
I0129 09:01:44.432462 32491 net.cpp:131] Top shape: 1 255 26 26 (172380)
I0129 09:01:44.432464 32491 net.cpp:139] Memory required for data: 169072332
I0129 09:01:44.432468 32491 net.cpp:202] conv23_new does not need backward computation.
I0129 09:01:44.432489 32491 net.cpp:202] conv22 does not need backward computation.
I0129 09:01:44.432492 32491 net.cpp:202] conv18_new/relu does not need backward computation.
I0129 09:01:44.432495 32491 net.cpp:202] conv18_new does not need backward computation.
…
