I0129 09:06:50.185220 32620 caffe.cpp:355] Use GPU with device ID 0
I0129 09:06:50.355537 32620 net.cpp:296] The NetState phase (0) differed from the phase (1) specified by a rule in layer detection_out
I0129 09:06:50.355756 32620 net.cpp:53] Initializing net from parameters: 
name: "remove_bn"
state {
  phase: TRAIN
  level: 0
  stage: ""
}
layer {
  name: "data"
  type: "Input"
  top: "data"
  input_param {
    shape {
      dim: 1
      dim: 3
      dim: 320
      dim: 320
    }
  }
}
layer {
  name: "conv0"
  type: "Convolution"
  bottom: "data"
  top: "conv0"
  param {
    lr_mult: 1
    decay_mult: 1
  }
  convolution_param {
    num_output: 32
    bias_term: true
    pad: 1
    kernel_size: 3
    stride: 2
    weight_filler {
      type: "msra"
    }
  }
}
layer {
  name: "conv0/relu"
  type: "ReLU"
  bottom: "conv0"
  top: "conv0"
}
layer {
  name: "conv1/dw"
  type: "DepthwiseConvolution"
  bottom: "conv0"
  top: "conv1/dw"
  param {
    lr_mult: 1
    decay_mult: 1
  }
  convolution_param {
    num_output: 32
    bias_term: true
    pad: 1
    kernel_size: 3
    group: 32
    weight_filler {
      type: "msra"
    }
    engine: CAFFE
  }
}
layer {
  name: "conv1/dw/relu"
  type: "ReLU"
  bottom: "conv1/dw"
  top: "conv1/dw"
}
layer {
  name: "conv1"
  type: "Convolution"
  bottom: "conv1/dw"
  top: "conv1"
  param {
    lr_mult: 1
    decay_mult: 1
  }
  convolution_param {
    num_output: 64
    bias_term: true
    kernel_size: 1
    weight_filler {
      type: "msra"
    }
  }
}
layer {
  name: "conv1/relu"
  type: "ReLU"
  bottom: "conv1"
  top: "conv1"
}
layer {
  name: "conv2/dw"
  type: "DepthwiseConvolution"
  bottom: "conv1"
  top: "conv2/dw"
  param {
    lr_mult: 1
    decay_mult: 1
  }
  convolution_param {
    num_output: 64
    bias_term: true
    pad: 1
    kernel_size: 3
    group: 64
    stride: 2
    weight_filler {
      type: "msra"
    }
    engine: CAFFE
  }
}
layer {
  name: "conv2/dw/relu"
  type: "ReLU"
  bottom: "conv2/dw"
  top: "conv2/dw"
}
layer {
  name: "conv2"
  type: "Convolution"
  bottom: "conv2/dw"
  top: "conv2"
  param {
    lr_mult: 1
    decay_mult: 1
  }
  convolution_param {
    num_output: 128
    bias_term: true
    kernel_size: 1
    weight_filler {
      type: "msra"
    }
  }
}
layer {
  name: "conv2/relu"
  type: "ReLU"
  bottom: "conv2"
  top: "conv2"
}
layer {
  name: "conv3/dw"
  type: "DepthwiseConvolution"
  bottom: "conv2"
  top: "conv3/dw"
  param {
    lr_mult: 1
    decay_mult: 1
  }
  convolution_param {
    num_output: 128
    bias_term: true
    pad: 1
    kernel_size: 3
    group: 128
    weight_filler {
      type: "msra"
    }
    engine: CAFFE
  }
}
layer {
  name: "conv3/dw/relu"
  type: "ReLU"
  bottom: "conv3/dw"
  top: "conv3/dw"
}
layer {
  name: "conv3"
  type: "Convolution"
  bottom: "conv3/dw"
  top: "conv3"
  param {
    lr_mult: 1
    decay_mult: 1
  }
  convolution_param {
    num_output: 128
    bias_term: true
    kernel_size: 1
    weight_filler {
      type: "msra"
    }
  }
}
layer {
  name: "conv3/relu"
  type: "ReLU"
  bottom: "conv3"
  top: "conv3"
}
layer {
  name: "conv4/dw"
  type: "DepthwiseConvolution"
  bottom: "conv3"
  top: "conv4/dw"
  param {
    lr_mult: 1
    decay_mult: 1
  }
  convolution_param {
    num_output: 128
    bias_term: true
    pad: 1
    kernel_size: 3
    group: 128
    stride: 2
    weight_filler {
      type: "msra"
    }
    engine: CAFFE
  }
}
layer {
  name: "conv4/dw/relu"
  type: "ReLU"
  bottom: "conv4/dw"
  top: "conv4/dw"
}
layer {
  name: "conv4"
  type: "Convolution"
  bottom: "conv4/dw"
  top: "conv4"
  param {
    lr_mult: 1
    decay_mult: 1
  }
  convolution_param {
    num_output: 256
    bias_term: true
    kernel_size: 1
    weight_filler {
      type: "msra"
    }
  }
}
layer {
  name: "conv4/relu"
  type: "ReLU"
  bottom: "conv4"
  top: "conv4"
}
layer {
  name: "conv5/dw"
  type: "DepthwiseConvolution"
  bottom: "conv4"
  top: "conv5/dw"
  param {
    lr_mult: 1
    decay_mult: 1
  }
  convolution_param {
    num_output: 256
    bias_term: true
    pad: 1
    kernel_size: 3
    group: 256
    weight_filler {
      type: "msra"
    }
    engine: CAFFE
  }
}
layer {
  name: "conv5/dw/relu"
  type: "ReLU"
  bottom: "conv5/dw"
  top: "conv5/dw"
}
layer {
  name: "conv5"
  type: "Convolution"
  bottom: "conv5/dw"
  top: "conv5"
  param {
    lr_mult: 1
    decay_mult: 1
  }
  convolution_param {
    num_output: 256
    bias_term: true
    kernel_size: 1
    weight_filler {
      type: "msra"
    }
  }
}
layer {
  name: "conv5/relu"
  type: "ReLU"
  bottom: "conv5"
  top: "conv5"
}
layer {
  name: "conv6/dw"
  type: "DepthwiseConvolution"
  bottom: "conv5"
  top: "conv6/dw"
  param {
    lr_mult: 1
    decay_mult: 1
  }
  convolution_param {
    num_output: 256
    bias_term: true
    pad: 1
    kernel_size: 3
    group: 256
    stride: 2
    weight_filler {
      type: "msra"
    }
    engine: CAFFE
  }
}
layer {
  name: "conv6/dw/relu"
  type: "ReLU"
  bottom: "conv6/dw"
  top: "conv6/dw"
}
layer {
  name: "conv6"
  type: "Convolution"
  bottom: "conv6/dw"
  top: "conv6"
  param {
    lr_mult: 1
    decay_mult: 1
  }
  convolution_param {
    num_output: 512
    bias_term: true
    kernel_size: 1
    weight_filler {
      type: "msra"
    }
  }
}
layer {
  name: "conv6/relu"
  type: "ReLU"
  bottom: "conv6"
  top: "conv6"
}
layer {
  name: "conv7/dw"
  type: "DepthwiseConvolution"
  bottom: "conv6"
  top: "conv7/dw"
  param {
    lr_mult: 1
    decay_mult: 1
  }
  convolution_param {
    num_output: 512
    bias_term: true
    pad: 1
    kernel_size: 3
    group: 512
    weight_filler {
      type: "msra"
    }
    engine: CAFFE
  }
}
layer {
  name: "conv7/dw/relu"
  type: "ReLU"
  bottom: "conv7/dw"
  top: "conv7/dw"
}
layer {
  name: "conv7"
  type: "Convolution"
  bottom: "conv7/dw"
  top: "conv7"
  param {
    lr_mult: 1
    decay_mult: 1
  }
  convolution_param {
    num_output: 512
    bias_term: true
    kernel_size: 1
    weight_filler {
      type: "msra"
    }
  }
}
layer {
  name: "conv7/relu"
  type: "ReLU"
  bottom: "conv7"
  top: "conv7"
}
layer {
  name: "conv8/dw"
  type: "DepthwiseConvolution"
  bottom: "conv7"
  top: "conv8/dw"
  param {
    lr_mult: 1
    decay_mult: 1
  }
  convolution_param {
    num_output: 512
    bias_term: true
    pad: 1
    kernel_size: 3
    group: 512
    weight_filler {
      type: "msra"
    }
    engine: CAFFE
  }
}
layer {
  name: "conv8/dw/relu"
  type: "ReLU"
  bottom: "conv8/dw"
  top: "conv8/dw"
}
layer {
  name: "conv8"
  type: "Convolution"
  bottom: "conv8/dw"
  top: "conv8"
  param {
    lr_mult: 1
    decay_mult: 1
  }
  convolution_param {
    num_output: 512
    bias_term: true
    kernel_size: 1
    weight_filler {
      type: "msra"
    }
  }
}
layer {
  name: "conv8/relu"
  type: "ReLU"
  bottom: "conv8"
  top: "conv8"
}
layer {
  name: "conv9/dw"
  type: "DepthwiseConvolution"
  bottom: "conv8"
  top: "conv9/dw"
  param {
    lr_mult: 1
    decay_mult: 1
  }
  convolution_param {
    num_output: 512
    bias_term: true
    pad: 1
    kernel_size: 3
    group: 512
    weight_filler {
      type: "msra"
    }
    engine: CAFFE
  }
}
layer {
  name: "conv9/dw/relu"
  type: "ReLU"
  bottom: "conv9/dw"
  top: "conv9/dw"
}
layer {
  name: "conv9"
  type: "Convolution"
  bottom: "conv9/dw"
  top: "conv9"
  param {
    lr_mult: 1
    decay_mult: 1
  }
  convolution_param {
    num_output: 512
    bias_term: true
    kernel_size: 1
    weight_filler {
      type: "msra"
    }
  }
}
layer {
  name: "conv9/relu"
  type: "ReLU"
  bottom: "conv9"
  top: "conv9"
}
layer {
  name: "conv10/dw"
  type: "DepthwiseConvolution"
  bottom: "conv9"
  top: "conv10/dw"
  param {
    lr_mult: 1
    decay_mult: 1
  }
  convolution_param {
    num_output: 512
    bias_term: true
    pad: 1
    kernel_size: 3
    group: 512
    weight_filler {
      type: "msra"
    }
    engine: CAFFE
  }
}
layer {
  name: "conv10/dw/relu"
  type: "ReLU"
  bottom: "conv10/dw"
  top: "conv10/dw"
}
layer {
  name: "conv10"
  type: "Convolution"
  bottom: "conv10/dw"
  top: "conv10"
  param {
    lr_mult: 1
    decay_mult: 1
  }
  convolution_param {
    num_output: 512
    bias_term: true
    kernel_size: 1
    weight_filler {
      type: "msra"
    }
  }
}
layer {
  name: "conv10/relu"
  type: "ReLU"
  bottom: "conv10"
  top: "conv10"
}
layer {
  name: "conv11/dw"
  type: "DepthwiseConvolution"
  bottom: "conv10"
  top: "conv11/dw"
  param {
    lr_mult: 1
    decay_mult: 1
  }
  convolution_param {
    num_output: 512
    bias_term: true
    pad: 1
    kernel_size: 3
    group: 512
    weight_filler {
      type: "msra"
    }
    engine: CAFFE
  }
}
layer {
  name: "conv11/dw/relu"
  type: "ReLU"
  bottom: "conv11/dw"
  top: "conv11/dw"
}
layer {
  name: "conv11"
  type: "Convolution"
  bottom: "conv11/dw"
  top: "conv11"
  param {
    lr_mult: 1
    decay_mult: 1
  }
  convolution_param {
    num_output: 512
    bias_term: true
    kernel_size: 1
    weight_filler {
      type: "msra"
    }
  }
}
layer {
  name: "conv11/relu"
  type: "ReLU"
  bottom: "conv11"
  top: "conv11"
}
layer {
  name: "conv12/dw"
  type: "DepthwiseConvolution"
  bottom: "conv11"
  top: "conv12/dw"
  param {
    lr_mult: 1
    decay_mult: 1
  }
  convolution_param {
    num_output: 512
    bias_term: true
    pad: 1
    kernel_size: 3
    group: 512
    stride: 2
    weight_filler {
      type: "msra"
    }
    engine: CAFFE
  }
}
layer {
  name: "conv12/dw/relu"
  type: "ReLU"
  bottom: "conv12/dw"
  top: "conv12/dw"
}
layer {
  name: "conv12"
  type: "Convolution"
  bottom: "conv12/dw"
  top: "conv12"
  param {
    lr_mult: 1
    decay_mult: 1
  }
  convolution_param {
    num_output: 1024
    bias_term: true
    kernel_size: 1
    weight_filler {
      type: "msra"
    }
  }
}
layer {
  name: "conv12/relu"
  type: "ReLU"
  bottom: "conv12"
  top: "conv12"
}
layer {
  name: "conv13/dw"
  type: "DepthwiseConvolution"
  bottom: "conv12"
  top: "conv13/dw"
  param {
    lr_mult: 1
    decay_mult: 1
  }
  convolution_param {
    num_output: 1024
    bias_term: true
    pad: 1
    kernel_size: 3
    group: 1024
    weight_filler {
      type: "msra"
    }
    engine: CAFFE
  }
}
layer {
  name: "conv13/dw/relu"
  type: "ReLU"
  bottom: "conv13/dw"
  top: "conv13/dw"
}
layer {
  name: "conv13"
  type: "Convolution"
  bottom: "conv13/dw"
  top: "conv13"
  param {
    lr_mult: 1
    decay_mult: 1
  }
  convolution_param {
    num_output: 1024
    bias_term: true
    kernel_size: 1
    weight_filler {
      type: "msra"
    }
  }
}
layer {
  name: "conv13/relu"
  type: "ReLU"
  bottom: "conv13"
  top: "conv13"
}
layer {
  name: "conv15/dw"
  type: "DepthwiseConvolution"
  bottom: "conv13"
  top: "conv15/dw"
  param {
    lr_mult: 1
    decay_mult: 1
  }
  convolution_param {
    num_output: 1024
    bias_term: true
    pad: 1
    kernel_size: 3
    group: 1024
    weight_filler {
      type: "msra"
    }
    engine: CAFFE
  }
}
layer {
  name: "conv15/dw/relu"
  type: "ReLU"
  bottom: "conv15/dw"
  top: "conv15/dw"
}
layer {
  name: "conv15"
  type: "Convolution"
  bottom: "conv15/dw"
  top: "conv15"
  param {
    lr_mult: 1
    decay_mult: 1
  }
  convolution_param {
    num_output: 1024
    bias_term: true
    kernel_size: 1
    weight_filler {
      type: "msra"
    }
  }
}
layer {
  name: "conv15/relu"
  type: "ReLU"
  bottom: "conv15"
  top: "conv15"
}
layer {
  name: "conv16_new"
  type: "Convolution"
  bottom: "conv15"
  top: "conv16_new"
  param {
    lr_mult: 1
    decay_mult: 1
  }
  convolution_param {
    num_output: 512
    bias_term: true
    kernel_size: 1
    weight_filler {
      type: "msra"
    }
  }
}
layer {
  name: "conv16_new/relu"
  type: "ReLU"
  bottom: "conv16_new"
  top: "conv16_new"
}
layer {
  name: "upsample_new"
  type: "Upsample"
  bottom: "conv16_new"
  top: "upsample_new"
  upsample_param {
    scale: 2
  }
}
layer {
  name: "conv17/dw"
  type: "DepthwiseConvolution"
  bottom: "conv11"
  top: "conv17/dw"
  param {
    lr_mult: 1
    decay_mult: 1
  }
  convolution_param {
    num_output: 512
    bias_term: true
    pad: 1
    kernel_size: 3
    group: 512
    weight_filler {
      type: "msra"
    }
    engine: CAFFE
  }
}
layer {
  name: "conv17/dw/relu"
  type: "ReLU"
  bottom: "conv17/dw"
  top: "conv17/dw"
}
layer {
  name: "conv17"
  type: "Convolution"
  bottom: "conv17/dw"
  top: "conv17"
  param {
    lr_mult: 1
    decay_mult: 1
  }
  convolution_param {
    num_output: 512
    bias_term: true
    kernel_size: 1
    weight_filler {
      type: "msra"
    }
  }
}
layer {
  name: "conv17/relu"
  type: "ReLU"
  bottom: "conv17"
  top: "conv17"
}
layer {
  name: "conv17/sum"
  type: "Eltwise"
  bottom: "upsample_new"
  bottom: "conv17"
  top: "conv17/sum"
}
layer {
  name: "conv18_plus"
  type: "Convolution"
  bottom: "conv17/sum"
  top: "conv18_plus"
  param {
    lr_mult: 1
    decay_mult: 1
  }
  convolution_param {
    num_output: 512
    bias_term: true
    kernel_size: 1
    weight_filler {
      type: "msra"
    }
  }
}
layer {
  name: "conv18_plus/relu"
  type: "ReLU"
  bottom: "conv18_plus"
  top: "conv18_plus"
}
layer {
  name: "conv18/dw"
  type: "DepthwiseConvolution"
  bottom: "conv18_plus"
  top: "conv18/dw"
  param {
    lr_mult: 1
    decay_mult: 1
  }
  convolution_param {
    num_output: 512
    bias_term: true
    pad: 1
    kernel_size: 3
    group: 512
    weight_filler {
      type: "msra"
    }
    engine: CAFFE
  }
}
layer {
  name: "conv18/dw/relu"
  type: "ReLU"
  bottom: "conv18/dw"
  top: "conv18/dw"
}
layer {
  name: "conv18_new"
  type: "Convolution"
  bottom: "conv18/dw"
  top: "conv18_new"
  param {
    lr_mult: 1
    decay_mult: 1
  }
  convolution_param {
    num_output: 1024
    bias_term: true
    kernel_size: 1
    weight_filler {
      type: "msra"
    }
  }
}
layer {
  name: "conv18_new/relu"
  type: "ReLU"
  bottom: "conv18_new"
  top: "conv18_new"
}
layer {
  name: "conv22"
  type: "Convolution"
  bottom: "conv15"
  top: "conv22"
  param {
    lr_mult: 1
    decay_mult: 1
  }
  param {
    lr_mult: 2
    decay_mult: 0
  }
  convolution_param {
    num_output: 255
    bias_term: true
    pad: 0
    kernel_size: 1
    stride: 1
    weight_filler {
      type: "xavier"
    }
    bias_filler {
      value: 0
    }
  }
}
layer {
  name: "conv23_new"
  type: "Convolution"
  bottom: "conv18_new"
  top: "conv23_new"
  param {
    lr_mult: 1
    decay_mult: 1
  }
  param {
    lr_mult: 2
    decay_mult: 0
  }
  convolution_param {
    num_output: 255
    bias_term: true
    pad: 0
    kernel_size: 1
    stride: 1
    weight_filler {
      type: "xavier"
    }
    bias_filler {
      value: 0
    }
  }
}
I0129 09:06:50.355962 32620 layer_factory.hpp:77] Creating layer data
I0129 09:06:50.355969 32620 net.cpp:86] Creating Layer data
I0129 09:06:50.355973 32620 net.cpp:382] data -> data
I0129 09:06:50.366746 32620 net.cpp:124] Setting up data
I0129 09:06:50.366766 32620 net.cpp:131] Top shape: 1 3 320 320 (307200)
I0129 09:06:50.366770 32620 net.cpp:139] Memory required for data: 1228800
I0129 09:06:50.366772 32620 layer_factory.hpp:77] Creating layer conv0
I0129 09:06:50.366783 32620 net.cpp:86] Creating Layer conv0
I0129 09:06:50.366786 32620 net.cpp:408] conv0 <- data
I0129 09:06:50.366791 32620 net.cpp:382] conv0 -> conv0
I0129 09:06:50.368080 32620 net.cpp:124] Setting up conv0
I0129 09:06:50.368094 32620 net.cpp:131] Top shape: 1 32 160 160 (819200)
I0129 09:06:50.368098 32620 net.cpp:139] Memory required for data: 4505600
I0129 09:06:50.368126 32620 layer_factory.hpp:77] Creating layer conv0/relu
I0129 09:06:50.368134 32620 net.cpp:86] Creating Layer conv0/relu
I0129 09:06:50.368136 32620 net.cpp:408] conv0/relu <- conv0
I0129 09:06:50.368140 32620 net.cpp:369] conv0/relu -> conv0 (in-place)
I0129 09:06:50.368147 32620 net.cpp:124] Setting up conv0/relu
I0129 09:06:50.368151 32620 net.cpp:131] Top shape: 1 32 160 160 (819200)
I0129 09:06:50.368155 32620 net.cpp:139] Memory required for data: 7782400
I0129 09:06:50.368156 32620 layer_factory.hpp:77] Creating layer conv1/dw
I0129 09:06:50.368162 32620 net.cpp:86] Creating Layer conv1/dw
I0129 09:06:50.368165 32620 net.cpp:408] conv1/dw <- conv0
I0129 09:06:50.368183 32620 net.cpp:382] conv1/dw -> conv1/dw
I0129 09:06:50.368366 32620 net.cpp:124] Setting up conv1/dw
I0129 09:06:50.368371 32620 net.cpp:131] Top shape: 1 32 160 160 (819200)
I0129 09:06:50.368373 32620 net.cpp:139] Memory required for data: 11059200
I0129 09:06:50.368404 32620 layer_factory.hpp:77] Creating layer conv1/dw/relu
I0129 09:06:50.368410 32620 net.cpp:86] Creating Layer conv1/dw/relu
I0129 09:06:50.368412 32620 net.cpp:408] conv1/dw/relu <- conv1/dw
I0129 09:06:50.368417 32620 net.cpp:369] conv1/dw/relu -> conv1/dw (in-place)
I0129 09:06:50.368419 32620 net.cpp:124] Setting up conv1/dw/relu
I0129 09:06:50.368424 32620 net.cpp:131] Top shape: 1 32 160 160 (819200)
I0129 09:06:50.368427 32620 net.cpp:139] Memory required for data: 14336000
I0129 09:06:50.368429 32620 layer_factory.hpp:77] Creating layer conv1
I0129 09:06:50.368434 32620 net.cpp:86] Creating Layer conv1
I0129 09:06:50.368438 32620 net.cpp:408] conv1 <- conv1/dw
I0129 09:06:50.368441 32620 net.cpp:382] conv1 -> conv1
I0129 09:06:50.369182 32620 net.cpp:124] Setting up conv1
I0129 09:06:50.369191 32620 net.cpp:131] Top shape: 1 64 160 160 (1638400)
I0129 09:06:50.369194 32620 net.cpp:139] Memory required for data: 20889600
I0129 09:06:50.369212 32620 layer_factory.hpp:77] Creating layer conv1/relu
I0129 09:06:50.369217 32620 net.cpp:86] Creating Layer conv1/relu
I0129 09:06:50.369220 32620 net.cpp:408] conv1/relu <- conv1
I0129 09:06:50.369225 32620 net.cpp:369] conv1/relu -> conv1 (in-place)
I0129 09:06:50.369228 32620 net.cpp:124] Setting up conv1/relu
I0129 09:06:50.369232 32620 net.cpp:131] Top shape: 1 64 160 160 (1638400)
I0129 09:06:50.369235 32620 net.cpp:139] Memory required for data: 27443200
I0129 09:06:50.369237 32620 layer_factory.hpp:77] Creating layer conv2/dw
I0129 09:06:50.369241 32620 net.cpp:86] Creating Layer conv2/dw
I0129 09:06:50.369244 32620 net.cpp:408] conv2/dw <- conv1
I0129 09:06:50.369249 32620 net.cpp:382] conv2/dw -> conv2/dw
I0129 09:06:50.369992 32620 net.cpp:124] Setting up conv2/dw
I0129 09:06:50.370000 32620 net.cpp:131] Top shape: 1 64 80 80 (409600)
I0129 09:06:50.370002 32620 net.cpp:139] Memory required for data: 29081600
I0129 09:06:50.370007 32620 layer_factory.hpp:77] Creating layer conv2/dw/relu
I0129 09:06:50.370025 32620 net.cpp:86] Creating Layer conv2/dw/relu
I0129 09:06:50.370028 32620 net.cpp:408] conv2/dw/relu <- conv2/dw
I0129 09:06:50.370030 32620 net.cpp:369] conv2/dw/relu -> conv2/dw (in-place)
I0129 09:06:50.370034 32620 net.cpp:124] Setting up conv2/dw/relu
I0129 09:06:50.370039 32620 net.cpp:131] Top shape: 1 64 80 80 (409600)
I0129 09:06:50.370043 32620 net.cpp:139] Memory required for data: 30720000
I0129 09:06:50.370045 32620 layer_factory.hpp:77] Creating layer conv2
I0129 09:06:50.370050 32620 net.cpp:86] Creating Layer conv2
I0129 09:06:50.370077 32620 net.cpp:408] conv2 <- conv2/dw
I0129 09:06:50.370082 32620 net.cpp:382] conv2 -> conv2
I0129 09:06:50.370327 32620 net.cpp:124] Setting up conv2
I0129 09:06:50.370333 32620 net.cpp:131] Top shape: 1 128 80 80 (819200)
I0129 09:06:50.370335 32620 net.cpp:139] Memory required for data: 33996800
I0129 09:06:50.370339 32620 layer_factory.hpp:77] Creating layer conv2/relu
I0129 09:06:50.370357 32620 net.cpp:86] Creating Layer conv2/relu
I0129 09:06:50.370360 32620 net.cpp:408] conv2/relu <- conv2
I0129 09:06:50.370363 32620 net.cpp:369] conv2/relu -> conv2 (in-place)
I0129 09:06:50.370368 32620 net.cpp:124] Setting up conv2/relu
I0129 09:06:50.370370 32620 net.cpp:131] Top shape: 1 128 80 80 (819200)
I0129 09:06:50.370373 32620 net.cpp:139] Memory required for data: 37273600
I0129 09:06:50.370374 32620 layer_factory.hpp:77] Creating layer conv3/dw
I0129 09:06:50.370379 32620 net.cpp:86] Creating Layer conv3/dw
I0129 09:06:50.370383 32620 net.cpp:408] conv3/dw <- conv2
I0129 09:06:50.370386 32620 net.cpp:382] conv3/dw -> conv3/dw
I0129 09:06:50.370584 32620 net.cpp:124] Setting up conv3/dw
I0129 09:06:50.370589 32620 net.cpp:131] Top shape: 1 128 80 80 (819200)
I0129 09:06:50.370592 32620 net.cpp:139] Memory required for data: 40550400
I0129 09:06:50.370607 32620 layer_factory.hpp:77] Creating layer conv3/dw/relu
I0129 09:06:50.370611 32620 net.cpp:86] Creating Layer conv3/dw/relu
I0129 09:06:50.370613 32620 net.cpp:408] conv3/dw/relu <- conv3/dw
I0129 09:06:50.370630 32620 net.cpp:369] conv3/dw/relu -> conv3/dw (in-place)
I0129 09:06:50.370645 32620 net.cpp:124] Setting up conv3/dw/relu
I0129 09:06:50.370648 32620 net.cpp:131] Top shape: 1 128 80 80 (819200)
I0129 09:06:50.370651 32620 net.cpp:139] Memory required for data: 43827200
I0129 09:06:50.370652 32620 layer_factory.hpp:77] Creating layer conv3
I0129 09:06:50.370657 32620 net.cpp:86] Creating Layer conv3
I0129 09:06:50.370661 32620 net.cpp:408] conv3 <- conv3/dw
I0129 09:06:50.370664 32620 net.cpp:382] conv3 -> conv3
I0129 09:06:50.370959 32620 net.cpp:124] Setting up conv3
I0129 09:06:50.370963 32620 net.cpp:131] Top shape: 1 128 80 80 (819200)
I0129 09:06:50.370965 32620 net.cpp:139] Memory required for data: 47104000
I0129 09:06:50.370970 32620 layer_factory.hpp:77] Creating layer conv3/relu
I0129 09:06:50.370987 32620 net.cpp:86] Creating Layer conv3/relu
I0129 09:06:50.370990 32620 net.cpp:408] conv3/relu <- conv3
I0129 09:06:50.370993 32620 net.cpp:369] conv3/relu -> conv3 (in-place)
I0129 09:06:50.370996 32620 net.cpp:124] Setting up conv3/relu
I0129 09:06:50.370999 32620 net.cpp:131] Top shape: 1 128 80 80 (819200)
I0129 09:06:50.371001 32620 net.cpp:139] Memory required for data: 50380800
I0129 09:06:50.371003 32620 layer_factory.hpp:77] Creating layer conv4/dw
I0129 09:06:50.371008 32620 net.cpp:86] Creating Layer conv4/dw
I0129 09:06:50.371011 32620 net.cpp:408] conv4/dw <- conv3
I0129 09:06:50.371014 32620 net.cpp:382] conv4/dw -> conv4/dw
I0129 09:06:50.371208 32620 net.cpp:124] Setting up conv4/dw
I0129 09:06:50.371213 32620 net.cpp:131] Top shape: 1 128 40 40 (204800)
I0129 09:06:50.371217 32620 net.cpp:139] Memory required for data: 51200000
I0129 09:06:50.371219 32620 layer_factory.hpp:77] Creating layer conv4/dw/relu
I0129 09:06:50.371235 32620 net.cpp:86] Creating Layer conv4/dw/relu
I0129 09:06:50.371238 32620 net.cpp:408] conv4/dw/relu <- conv4/dw
I0129 09:06:50.371242 32620 net.cpp:369] conv4/dw/relu -> conv4/dw (in-place)
I0129 09:06:50.371258 32620 net.cpp:124] Setting up conv4/dw/relu
I0129 09:06:50.371261 32620 net.cpp:131] Top shape: 1 128 40 40 (204800)
I0129 09:06:50.371263 32620 net.cpp:139] Memory required for data: 52019200
I0129 09:06:50.371265 32620 layer_factory.hpp:77] Creating layer conv4
I0129 09:06:50.371270 32620 net.cpp:86] Creating Layer conv4
I0129 09:06:50.371273 32620 net.cpp:408] conv4 <- conv4/dw
I0129 09:06:50.371275 32620 net.cpp:382] conv4 -> conv4
I0129 09:06:50.371657 32620 net.cpp:124] Setting up conv4
I0129 09:06:50.371662 32620 net.cpp:131] Top shape: 1 256 40 40 (409600)
I0129 09:06:50.371665 32620 net.cpp:139] Memory required for data: 53657600
I0129 09:06:50.371670 32620 layer_factory.hpp:77] Creating layer conv4/relu
I0129 09:06:50.371687 32620 net.cpp:86] Creating Layer conv4/relu
I0129 09:06:50.371690 32620 net.cpp:408] conv4/relu <- conv4
I0129 09:06:50.371693 32620 net.cpp:369] conv4/relu -> conv4 (in-place)
I0129 09:06:50.371696 32620 net.cpp:124] Setting up conv4/relu
I0129 09:06:50.371700 32620 net.cpp:131] Top shape: 1 256 40 40 (409600)
I0129 09:06:50.371702 32620 net.cpp:139] Memory required for data: 55296000
I0129 09:06:50.371704 32620 layer_factory.hpp:77] Creating layer conv5/dw
I0129 09:06:50.371709 32620 net.cpp:86] Creating Layer conv5/dw
I0129 09:06:50.371712 32620 net.cpp:408] conv5/dw <- conv4
I0129 09:06:50.371716 32620 net.cpp:382] conv5/dw -> conv5/dw
I0129 09:06:50.371937 32620 net.cpp:124] Setting up conv5/dw
I0129 09:06:50.371942 32620 net.cpp:131] Top shape: 1 256 40 40 (409600)
I0129 09:06:50.371944 32620 net.cpp:139] Memory required for data: 56934400
I0129 09:06:50.371948 32620 layer_factory.hpp:77] Creating layer conv5/dw/relu
I0129 09:06:50.371965 32620 net.cpp:86] Creating Layer conv5/dw/relu
I0129 09:06:50.371968 32620 net.cpp:408] conv5/dw/relu <- conv5/dw
I0129 09:06:50.371971 32620 net.cpp:369] conv5/dw/relu -> conv5/dw (in-place)
I0129 09:06:50.371974 32620 net.cpp:124] Setting up conv5/dw/relu
I0129 09:06:50.371978 32620 net.cpp:131] Top shape: 1 256 40 40 (409600)
I0129 09:06:50.371979 32620 net.cpp:139] Memory required for data: 58572800
I0129 09:06:50.371987 32620 layer_factory.hpp:77] Creating layer conv5
I0129 09:06:50.371992 32620 net.cpp:86] Creating Layer conv5
I0129 09:06:50.371995 32620 net.cpp:408] conv5 <- conv5/dw
I0129 09:06:50.371999 32620 net.cpp:382] conv5 -> conv5
I0129 09:06:50.372649 32620 net.cpp:124] Setting up conv5
I0129 09:06:50.372654 32620 net.cpp:131] Top shape: 1 256 40 40 (409600)
I0129 09:06:50.372658 32620 net.cpp:139] Memory required for data: 60211200
I0129 09:06:50.372660 32620 layer_factory.hpp:77] Creating layer conv5/relu
I0129 09:06:50.372664 32620 net.cpp:86] Creating Layer conv5/relu
I0129 09:06:50.372668 32620 net.cpp:408] conv5/relu <- conv5
I0129 09:06:50.372670 32620 net.cpp:369] conv5/relu -> conv5 (in-place)
I0129 09:06:50.372673 32620 net.cpp:124] Setting up conv5/relu
I0129 09:06:50.372676 32620 net.cpp:131] Top shape: 1 256 40 40 (409600)
I0129 09:06:50.372678 32620 net.cpp:139] Memory required for data: 61849600
I0129 09:06:50.372680 32620 layer_factory.hpp:77] Creating layer conv6/dw
I0129 09:06:50.372685 32620 net.cpp:86] Creating Layer conv6/dw
I0129 09:06:50.372687 32620 net.cpp:408] conv6/dw <- conv5
I0129 09:06:50.372691 32620 net.cpp:382] conv6/dw -> conv6/dw
I0129 09:06:50.372877 32620 net.cpp:124] Setting up conv6/dw
I0129 09:06:50.372884 32620 net.cpp:131] Top shape: 1 256 20 20 (102400)
I0129 09:06:50.372885 32620 net.cpp:139] Memory required for data: 62259200
I0129 09:06:50.372889 32620 layer_factory.hpp:77] Creating layer conv6/dw/relu
I0129 09:06:50.372892 32620 net.cpp:86] Creating Layer conv6/dw/relu
I0129 09:06:50.372895 32620 net.cpp:408] conv6/dw/relu <- conv6/dw
I0129 09:06:50.372898 32620 net.cpp:369] conv6/dw/relu -> conv6/dw (in-place)
I0129 09:06:50.372901 32620 net.cpp:124] Setting up conv6/dw/relu
I0129 09:06:50.372905 32620 net.cpp:131] Top shape: 1 256 20 20 (102400)
I0129 09:06:50.372906 32620 net.cpp:139] Memory required for data: 62668800
I0129 09:06:50.372908 32620 layer_factory.hpp:77] Creating layer conv6
I0129 09:06:50.372912 32620 net.cpp:86] Creating Layer conv6
I0129 09:06:50.372915 32620 net.cpp:408] conv6 <- conv6/dw
I0129 09:06:50.372918 32620 net.cpp:382] conv6 -> conv6
I0129 09:06:50.374416 32620 net.cpp:124] Setting up conv6
I0129 09:06:50.374426 32620 net.cpp:131] Top shape: 1 512 20 20 (204800)
I0129 09:06:50.374429 32620 net.cpp:139] Memory required for data: 63488000
I0129 09:06:50.374433 32620 layer_factory.hpp:77] Creating layer conv6/relu
I0129 09:06:50.374438 32620 net.cpp:86] Creating Layer conv6/relu
I0129 09:06:50.374439 32620 net.cpp:408] conv6/relu <- conv6
I0129 09:06:50.374442 32620 net.cpp:369] conv6/relu -> conv6 (in-place)
I0129 09:06:50.374447 32620 net.cpp:124] Setting up conv6/relu
I0129 09:06:50.374450 32620 net.cpp:131] Top shape: 1 512 20 20 (204800)
I0129 09:06:50.374452 32620 net.cpp:139] Memory required for data: 64307200
I0129 09:06:50.374454 32620 layer_factory.hpp:77] Creating layer conv7/dw
I0129 09:06:50.374459 32620 net.cpp:86] Creating Layer conv7/dw
I0129 09:06:50.374461 32620 net.cpp:408] conv7/dw <- conv6
I0129 09:06:50.374481 32620 net.cpp:382] conv7/dw -> conv7/dw
I0129 09:06:50.374671 32620 net.cpp:124] Setting up conv7/dw
I0129 09:06:50.374677 32620 net.cpp:131] Top shape: 1 512 20 20 (204800)
I0129 09:06:50.374680 32620 net.cpp:139] Memory required for data: 65126400
I0129 09:06:50.374683 32620 layer_factory.hpp:77] Creating layer conv7/dw/relu
I0129 09:06:50.374686 32620 net.cpp:86] Creating Layer conv7/dw/relu
I0129 09:06:50.374688 32620 net.cpp:408] conv7/dw/relu <- conv7/dw
I0129 09:06:50.374691 32620 net.cpp:369] conv7/dw/relu -> conv7/dw (in-place)
I0129 09:06:50.374696 32620 net.cpp:124] Setting up conv7/dw/relu
I0129 09:06:50.374698 32620 net.cpp:131] Top shape: 1 512 20 20 (204800)
I0129 09:06:50.374701 32620 net.cpp:139] Memory required for data: 65945600
I0129 09:06:50.374702 32620 layer_factory.hpp:77] Creating layer conv7
I0129 09:06:50.374708 32620 net.cpp:86] Creating Layer conv7
I0129 09:06:50.374711 32620 net.cpp:408] conv7 <- conv7/dw
I0129 09:06:50.374713 32620 net.cpp:382] conv7 -> conv7
I0129 09:06:50.376499 32620 net.cpp:124] Setting up conv7
I0129 09:06:50.376507 32620 net.cpp:131] Top shape: 1 512 20 20 (204800)
I0129 09:06:50.376508 32620 net.cpp:139] Memory required for data: 66764800
I0129 09:06:50.376511 32620 layer_factory.hpp:77] Creating layer conv7/relu
I0129 09:06:50.376515 32620 net.cpp:86] Creating Layer conv7/relu
I0129 09:06:50.376518 32620 net.cpp:408] conv7/relu <- conv7
I0129 09:06:50.376520 32620 net.cpp:369] conv7/relu -> conv7 (in-place)
I0129 09:06:50.376523 32620 net.cpp:124] Setting up conv7/relu
I0129 09:06:50.376526 32620 net.cpp:131] Top shape: 1 512 20 20 (204800)
I0129 09:06:50.376529 32620 net.cpp:139] Memory required for data: 67584000
I0129 09:06:50.376531 32620 layer_factory.hpp:77] Creating layer conv8/dw
I0129 09:06:50.376535 32620 net.cpp:86] Creating Layer conv8/dw
I0129 09:06:50.376538 32620 net.cpp:408] conv8/dw <- conv7
I0129 09:06:50.376543 32620 net.cpp:382] conv8/dw -> conv8/dw
I0129 09:06:50.376741 32620 net.cpp:124] Setting up conv8/dw
I0129 09:06:50.376747 32620 net.cpp:131] Top shape: 1 512 20 20 (204800)
I0129 09:06:50.376749 32620 net.cpp:139] Memory required for data: 68403200
I0129 09:06:50.376754 32620 layer_factory.hpp:77] Creating layer conv8/dw/relu
I0129 09:06:50.376758 32620 net.cpp:86] Creating Layer conv8/dw/relu
I0129 09:06:50.376761 32620 net.cpp:408] conv8/dw/relu <- conv8/dw
I0129 09:06:50.376765 32620 net.cpp:369] conv8/dw/relu -> conv8/dw (in-place)
I0129 09:06:50.376767 32620 net.cpp:124] Setting up conv8/dw/relu
I0129 09:06:50.376770 32620 net.cpp:131] Top shape: 1 512 20 20 (204800)
I0129 09:06:50.376772 32620 net.cpp:139] Memory required for data: 69222400
I0129 09:06:50.376775 32620 layer_factory.hpp:77] Creating layer conv8
I0129 09:06:50.376780 32620 net.cpp:86] Creating Layer conv8
I0129 09:06:50.376781 32620 net.cpp:408] conv8 <- conv8/dw
I0129 09:06:50.376785 32620 net.cpp:382] conv8 -> conv8
I0129 09:06:50.379099 32620 net.cpp:124] Setting up conv8
I0129 09:06:50.379108 32620 net.cpp:131] Top shape: 1 512 20 20 (204800)
I0129 09:06:50.379112 32620 net.cpp:139] Memory required for data: 70041600
I0129 09:06:50.379118 32620 layer_factory.hpp:77] Creating layer conv8/relu
I0129 09:06:50.379124 32620 net.cpp:86] Creating Layer conv8/relu
I0129 09:06:50.379127 32620 net.cpp:408] conv8/relu <- conv8
I0129 09:06:50.379130 32620 net.cpp:369] conv8/relu -> conv8 (in-place)
I0129 09:06:50.379134 32620 net.cpp:124] Setting up conv8/relu
I0129 09:06:50.379137 32620 net.cpp:131] Top shape: 1 512 20 20 (204800)
I0129 09:06:50.379139 32620 net.cpp:139] Memory required for data: 70860800
I0129 09:06:50.379142 32620 layer_factory.hpp:77] Creating layer conv9/dw
I0129 09:06:50.379160 32620 net.cpp:86] Creating Layer conv9/dw
I0129 09:06:50.379163 32620 net.cpp:408] conv9/dw <- conv8
I0129 09:06:50.379168 32620 net.cpp:382] conv9/dw -> conv9/dw
I0129 09:06:50.379385 32620 net.cpp:124] Setting up conv9/dw
I0129 09:06:50.379390 32620 net.cpp:131] Top shape: 1 512 20 20 (204800)
I0129 09:06:50.379393 32620 net.cpp:139] Memory required for data: 71680000
I0129 09:06:50.379396 32620 layer_factory.hpp:77] Creating layer conv9/dw/relu
I0129 09:06:50.379400 32620 net.cpp:86] Creating Layer conv9/dw/relu
I0129 09:06:50.379402 32620 net.cpp:408] conv9/dw/relu <- conv9/dw
I0129 09:06:50.379406 32620 net.cpp:369] conv9/dw/relu -> conv9/dw (in-place)
I0129 09:06:50.379410 32620 net.cpp:124] Setting up conv9/dw/relu
I0129 09:06:50.379412 32620 net.cpp:131] Top shape: 1 512 20 20 (204800)
I0129 09:06:50.379415 32620 net.cpp:139] Memory required for data: 72499200
I0129 09:06:50.379417 32620 layer_factory.hpp:77] Creating layer conv9
I0129 09:06:50.379421 32620 net.cpp:86] Creating Layer conv9
I0129 09:06:50.379425 32620 net.cpp:408] conv9 <- conv9/dw
I0129 09:06:50.379427 32620 net.cpp:382] conv9 -> conv9
I0129 09:06:50.381199 32620 net.cpp:124] Setting up conv9
I0129 09:06:50.381206 32620 net.cpp:131] Top shape: 1 512 20 20 (204800)
I0129 09:06:50.381207 32620 net.cpp:139] Memory required for data: 73318400
I0129 09:06:50.381211 32620 layer_factory.hpp:77] Creating layer conv9/relu
I0129 09:06:50.381223 32620 net.cpp:86] Creating Layer conv9/relu
I0129 09:06:50.381227 32620 net.cpp:408] conv9/relu <- conv9
I0129 09:06:50.381229 32620 net.cpp:369] conv9/relu -> conv9 (in-place)
I0129 09:06:50.381232 32620 net.cpp:124] Setting up conv9/relu
I0129 09:06:50.381235 32620 net.cpp:131] Top shape: 1 512 20 20 (204800)
I0129 09:06:50.381238 32620 net.cpp:139] Memory required for data: 74137600
I0129 09:06:50.381240 32620 layer_factory.hpp:77] Creating layer conv10/dw
I0129 09:06:50.381260 32620 net.cpp:86] Creating Layer conv10/dw
I0129 09:06:50.381263 32620 net.cpp:408] conv10/dw <- conv9
I0129 09:06:50.381268 32620 net.cpp:382] conv10/dw -> conv10/dw
I0129 09:06:50.381482 32620 net.cpp:124] Setting up conv10/dw
I0129 09:06:50.381487 32620 net.cpp:131] Top shape: 1 512 20 20 (204800)
I0129 09:06:50.381490 32620 net.cpp:139] Memory required for data: 74956800
I0129 09:06:50.381494 32620 layer_factory.hpp:77] Creating layer conv10/dw/relu
I0129 09:06:50.381496 32620 net.cpp:86] Creating Layer conv10/dw/relu
I0129 09:06:50.381498 32620 net.cpp:408] conv10/dw/relu <- conv10/dw
I0129 09:06:50.381501 32620 net.cpp:369] conv10/dw/relu -> conv10/dw (in-place)
I0129 09:06:50.381505 32620 net.cpp:124] Setting up conv10/dw/relu
I0129 09:06:50.381508 32620 net.cpp:131] Top shape: 1 512 20 20 (204800)
I0129 09:06:50.381510 32620 net.cpp:139] Memory required for data: 75776000
I0129 09:06:50.381512 32620 layer_factory.hpp:77] Creating layer conv10
I0129 09:06:50.381517 32620 net.cpp:86] Creating Layer conv10
I0129 09:06:50.381520 32620 net.cpp:408] conv10 <- conv10/dw
I0129 09:06:50.381538 32620 net.cpp:382] conv10 -> conv10
I0129 09:06:50.383844 32620 net.cpp:124] Setting up conv10
I0129 09:06:50.383855 32620 net.cpp:131] Top shape: 1 512 20 20 (204800)
I0129 09:06:50.383858 32620 net.cpp:139] Memory required for data: 76595200
I0129 09:06:50.383862 32620 layer_factory.hpp:77] Creating layer conv10/relu
I0129 09:06:50.383867 32620 net.cpp:86] Creating Layer conv10/relu
I0129 09:06:50.383869 32620 net.cpp:408] conv10/relu <- conv10
I0129 09:06:50.383874 32620 net.cpp:369] conv10/relu -> conv10 (in-place)
I0129 09:06:50.383878 32620 net.cpp:124] Setting up conv10/relu
I0129 09:06:50.383882 32620 net.cpp:131] Top shape: 1 512 20 20 (204800)
I0129 09:06:50.383884 32620 net.cpp:139] Memory required for data: 77414400
I0129 09:06:50.383886 32620 layer_factory.hpp:77] Creating layer conv11/dw
I0129 09:06:50.383905 32620 net.cpp:86] Creating Layer conv11/dw
I0129 09:06:50.383908 32620 net.cpp:408] conv11/dw <- conv10
I0129 09:06:50.383911 32620 net.cpp:382] conv11/dw -> conv11/dw
I0129 09:06:50.384104 32620 net.cpp:124] Setting up conv11/dw
I0129 09:06:50.384110 32620 net.cpp:131] Top shape: 1 512 20 20 (204800)
I0129 09:06:50.384112 32620 net.cpp:139] Memory required for data: 78233600
I0129 09:06:50.384115 32620 layer_factory.hpp:77] Creating layer conv11/dw/relu
I0129 09:06:50.384119 32620 net.cpp:86] Creating Layer conv11/dw/relu
I0129 09:06:50.384121 32620 net.cpp:408] conv11/dw/relu <- conv11/dw
I0129 09:06:50.384125 32620 net.cpp:369] conv11/dw/relu -> conv11/dw (in-place)
I0129 09:06:50.384130 32620 net.cpp:124] Setting up conv11/dw/relu
I0129 09:06:50.384132 32620 net.cpp:131] Top shape: 1 512 20 20 (204800)
I0129 09:06:50.384135 32620 net.cpp:139] Memory required for data: 79052800
I0129 09:06:50.384136 32620 layer_factory.hpp:77] Creating layer conv11
I0129 09:06:50.384140 32620 net.cpp:86] Creating Layer conv11
I0129 09:06:50.384157 32620 net.cpp:408] conv11 <- conv11/dw
I0129 09:06:50.384161 32620 net.cpp:382] conv11 -> conv11
I0129 09:06:50.385915 32620 net.cpp:124] Setting up conv11
I0129 09:06:50.385921 32620 net.cpp:131] Top shape: 1 512 20 20 (204800)
I0129 09:06:50.385923 32620 net.cpp:139] Memory required for data: 79872000
I0129 09:06:50.385926 32620 layer_factory.hpp:77] Creating layer conv11/relu
I0129 09:06:50.385931 32620 net.cpp:86] Creating Layer conv11/relu
I0129 09:06:50.385932 32620 net.cpp:408] conv11/relu <- conv11
I0129 09:06:50.385936 32620 net.cpp:369] conv11/relu -> conv11 (in-place)
I0129 09:06:50.385948 32620 net.cpp:124] Setting up conv11/relu
I0129 09:06:50.385951 32620 net.cpp:131] Top shape: 1 512 20 20 (204800)
I0129 09:06:50.385954 32620 net.cpp:139] Memory required for data: 80691200
I0129 09:06:50.385957 32620 layer_factory.hpp:77] Creating layer conv11_conv11/relu_0_split
I0129 09:06:50.385978 32620 net.cpp:86] Creating Layer conv11_conv11/relu_0_split
I0129 09:06:50.385982 32620 net.cpp:408] conv11_conv11/relu_0_split <- conv11
I0129 09:06:50.385984 32620 net.cpp:382] conv11_conv11/relu_0_split -> conv11_conv11/relu_0_split_0
I0129 09:06:50.385989 32620 net.cpp:382] conv11_conv11/relu_0_split -> conv11_conv11/relu_0_split_1
I0129 09:06:50.386018 32620 net.cpp:124] Setting up conv11_conv11/relu_0_split
I0129 09:06:50.386035 32620 net.cpp:131] Top shape: 1 512 20 20 (204800)
I0129 09:06:50.386039 32620 net.cpp:131] Top shape: 1 512 20 20 (204800)
I0129 09:06:50.386040 32620 net.cpp:139] Memory required for data: 82329600
I0129 09:06:50.386061 32620 layer_factory.hpp:77] Creating layer conv12/dw
I0129 09:06:50.386067 32620 net.cpp:86] Creating Layer conv12/dw
I0129 09:06:50.386070 32620 net.cpp:408] conv12/dw <- conv11_conv11/relu_0_split_0
I0129 09:06:50.386073 32620 net.cpp:382] conv12/dw -> conv12/dw
I0129 09:06:50.386268 32620 net.cpp:124] Setting up conv12/dw
I0129 09:06:50.386274 32620 net.cpp:131] Top shape: 1 512 10 10 (51200)
I0129 09:06:50.386276 32620 net.cpp:139] Memory required for data: 82534400
I0129 09:06:50.386279 32620 layer_factory.hpp:77] Creating layer conv12/dw/relu
I0129 09:06:50.386283 32620 net.cpp:86] Creating Layer conv12/dw/relu
I0129 09:06:50.386286 32620 net.cpp:408] conv12/dw/relu <- conv12/dw
I0129 09:06:50.386288 32620 net.cpp:369] conv12/dw/relu -> conv12/dw (in-place)
I0129 09:06:50.386314 32620 net.cpp:124] Setting up conv12/dw/relu
I0129 09:06:50.386317 32620 net.cpp:131] Top shape: 1 512 10 10 (51200)
I0129 09:06:50.386320 32620 net.cpp:139] Memory required for data: 82739200
I0129 09:06:50.386322 32620 layer_factory.hpp:77] Creating layer conv12
I0129 09:06:50.386327 32620 net.cpp:86] Creating Layer conv12
I0129 09:06:50.386329 32620 net.cpp:408] conv12 <- conv12/dw
I0129 09:06:50.386334 32620 net.cpp:382] conv12 -> conv12
I0129 09:06:50.390246 32620 net.cpp:124] Setting up conv12
I0129 09:06:50.390256 32620 net.cpp:131] Top shape: 1 1024 10 10 (102400)
I0129 09:06:50.390259 32620 net.cpp:139] Memory required for data: 83148800
I0129 09:06:50.390264 32620 layer_factory.hpp:77] Creating layer conv12/relu
I0129 09:06:50.390267 32620 net.cpp:86] Creating Layer conv12/relu
I0129 09:06:50.390270 32620 net.cpp:408] conv12/relu <- conv12
I0129 09:06:50.390274 32620 net.cpp:369] conv12/relu -> conv12 (in-place)
I0129 09:06:50.390278 32620 net.cpp:124] Setting up conv12/relu
I0129 09:06:50.390281 32620 net.cpp:131] Top shape: 1 1024 10 10 (102400)
I0129 09:06:50.390285 32620 net.cpp:139] Memory required for data: 83558400
I0129 09:06:50.390286 32620 layer_factory.hpp:77] Creating layer conv13/dw
I0129 09:06:50.390291 32620 net.cpp:86] Creating Layer conv13/dw
I0129 09:06:50.390295 32620 net.cpp:408] conv13/dw <- conv12
I0129 09:06:50.390312 32620 net.cpp:382] conv13/dw -> conv13/dw
I0129 09:06:50.390537 32620 net.cpp:124] Setting up conv13/dw
I0129 09:06:50.390542 32620 net.cpp:131] Top shape: 1 1024 10 10 (102400)
I0129 09:06:50.390559 32620 net.cpp:139] Memory required for data: 83968000
I0129 09:06:50.390563 32620 layer_factory.hpp:77] Creating layer conv13/dw/relu
I0129 09:06:50.390566 32620 net.cpp:86] Creating Layer conv13/dw/relu
I0129 09:06:50.390568 32620 net.cpp:408] conv13/dw/relu <- conv13/dw
I0129 09:06:50.390573 32620 net.cpp:369] conv13/dw/relu -> conv13/dw (in-place)
I0129 09:06:50.390578 32620 net.cpp:124] Setting up conv13/dw/relu
I0129 09:06:50.390580 32620 net.cpp:131] Top shape: 1 1024 10 10 (102400)
I0129 09:06:50.390583 32620 net.cpp:139] Memory required for data: 84377600
I0129 09:06:50.390585 32620 layer_factory.hpp:77] Creating layer conv13
I0129 09:06:50.390589 32620 net.cpp:86] Creating Layer conv13
I0129 09:06:50.390594 32620 net.cpp:408] conv13 <- conv13/dw
I0129 09:06:50.390609 32620 net.cpp:382] conv13 -> conv13
I0129 09:06:50.398120 32620 net.cpp:124] Setting up conv13
I0129 09:06:50.398138 32620 net.cpp:131] Top shape: 1 1024 10 10 (102400)
I0129 09:06:50.398141 32620 net.cpp:139] Memory required for data: 84787200
I0129 09:06:50.398147 32620 layer_factory.hpp:77] Creating layer conv13/relu
I0129 09:06:50.398154 32620 net.cpp:86] Creating Layer conv13/relu
I0129 09:06:50.398157 32620 net.cpp:408] conv13/relu <- conv13
I0129 09:06:50.398161 32620 net.cpp:369] conv13/relu -> conv13 (in-place)
I0129 09:06:50.398167 32620 net.cpp:124] Setting up conv13/relu
I0129 09:06:50.398170 32620 net.cpp:131] Top shape: 1 1024 10 10 (102400)
I0129 09:06:50.398174 32620 net.cpp:139] Memory required for data: 85196800
I0129 09:06:50.398175 32620 layer_factory.hpp:77] Creating layer conv15/dw
I0129 09:06:50.398196 32620 net.cpp:86] Creating Layer conv15/dw
I0129 09:06:50.398198 32620 net.cpp:408] conv15/dw <- conv13
I0129 09:06:50.398203 32620 net.cpp:382] conv15/dw -> conv15/dw
I0129 09:06:50.398468 32620 net.cpp:124] Setting up conv15/dw
I0129 09:06:50.398474 32620 net.cpp:131] Top shape: 1 1024 10 10 (102400)
I0129 09:06:50.398476 32620 net.cpp:139] Memory required for data: 85606400
I0129 09:06:50.398480 32620 layer_factory.hpp:77] Creating layer conv15/dw/relu
I0129 09:06:50.398483 32620 net.cpp:86] Creating Layer conv15/dw/relu
I0129 09:06:50.398486 32620 net.cpp:408] conv15/dw/relu <- conv15/dw
I0129 09:06:50.398489 32620 net.cpp:369] conv15/dw/relu -> conv15/dw (in-place)
I0129 09:06:50.398494 32620 net.cpp:124] Setting up conv15/dw/relu
I0129 09:06:50.398495 32620 net.cpp:131] Top shape: 1 1024 10 10 (102400)
I0129 09:06:50.398499 32620 net.cpp:139] Memory required for data: 86016000
I0129 09:06:50.398500 32620 layer_factory.hpp:77] Creating layer conv15
I0129 09:06:50.398506 32620 net.cpp:86] Creating Layer conv15
I0129 09:06:50.398509 32620 net.cpp:408] conv15 <- conv15/dw
I0129 09:06:50.398514 32620 net.cpp:382] conv15 -> conv15
I0129 09:06:50.406078 32620 net.cpp:124] Setting up conv15
I0129 09:06:50.406096 32620 net.cpp:131] Top shape: 1 1024 10 10 (102400)
I0129 09:06:50.406100 32620 net.cpp:139] Memory required for data: 86425600
I0129 09:06:50.406103 32620 layer_factory.hpp:77] Creating layer conv15/relu
I0129 09:06:50.406110 32620 net.cpp:86] Creating Layer conv15/relu
I0129 09:06:50.406112 32620 net.cpp:408] conv15/relu <- conv15
I0129 09:06:50.406117 32620 net.cpp:369] conv15/relu -> conv15 (in-place)
I0129 09:06:50.406122 32620 net.cpp:124] Setting up conv15/relu
I0129 09:06:50.406126 32620 net.cpp:131] Top shape: 1 1024 10 10 (102400)
I0129 09:06:50.406128 32620 net.cpp:139] Memory required for data: 86835200
I0129 09:06:50.406131 32620 layer_factory.hpp:77] Creating layer conv15_conv15/relu_0_split
I0129 09:06:50.406150 32620 net.cpp:86] Creating Layer conv15_conv15/relu_0_split
I0129 09:06:50.406152 32620 net.cpp:408] conv15_conv15/relu_0_split <- conv15
I0129 09:06:50.406157 32620 net.cpp:382] conv15_conv15/relu_0_split -> conv15_conv15/relu_0_split_0
I0129 09:06:50.406163 32620 net.cpp:382] conv15_conv15/relu_0_split -> conv15_conv15/relu_0_split_1
I0129 09:06:50.406208 32620 net.cpp:124] Setting up conv15_conv15/relu_0_split
I0129 09:06:50.406213 32620 net.cpp:131] Top shape: 1 1024 10 10 (102400)
I0129 09:06:50.406216 32620 net.cpp:131] Top shape: 1 1024 10 10 (102400)
I0129 09:06:50.406219 32620 net.cpp:139] Memory required for data: 87654400
I0129 09:06:50.406220 32620 layer_factory.hpp:77] Creating layer conv16_new
I0129 09:06:50.406226 32620 net.cpp:86] Creating Layer conv16_new
I0129 09:06:50.406229 32620 net.cpp:408] conv16_new <- conv15_conv15/relu_0_split_0
I0129 09:06:50.406234 32620 net.cpp:382] conv16_new -> conv16_new
I0129 09:06:50.410159 32620 net.cpp:124] Setting up conv16_new
I0129 09:06:50.410171 32620 net.cpp:131] Top shape: 1 512 10 10 (51200)
I0129 09:06:50.410173 32620 net.cpp:139] Memory required for data: 87859200
I0129 09:06:50.410192 32620 layer_factory.hpp:77] Creating layer conv16_new/relu
I0129 09:06:50.410197 32620 net.cpp:86] Creating Layer conv16_new/relu
I0129 09:06:50.410212 32620 net.cpp:408] conv16_new/relu <- conv16_new
I0129 09:06:50.410215 32620 net.cpp:369] conv16_new/relu -> conv16_new (in-place)
I0129 09:06:50.410220 32620 net.cpp:124] Setting up conv16_new/relu
I0129 09:06:50.410224 32620 net.cpp:131] Top shape: 1 512 10 10 (51200)
I0129 09:06:50.410226 32620 net.cpp:139] Memory required for data: 88064000
I0129 09:06:50.410228 32620 layer_factory.hpp:77] Creating layer upsample_new
I0129 09:06:50.410233 32620 net.cpp:86] Creating Layer upsample_new
I0129 09:06:50.410250 32620 net.cpp:408] upsample_new <- conv16_new
I0129 09:06:50.410254 32620 net.cpp:382] upsample_new -> upsample_new
I0129 09:06:50.410274 32620 net.cpp:124] Setting up upsample_new
I0129 09:06:50.410279 32620 net.cpp:131] Top shape: 1 512 20 20 (204800)
I0129 09:06:50.410293 32620 net.cpp:139] Memory required for data: 88883200
I0129 09:06:50.410295 32620 layer_factory.hpp:77] Creating layer conv17/dw
I0129 09:06:50.410305 32620 net.cpp:86] Creating Layer conv17/dw
I0129 09:06:50.410308 32620 net.cpp:408] conv17/dw <- conv11_conv11/relu_0_split_1
I0129 09:06:50.410312 32620 net.cpp:382] conv17/dw -> conv17/dw
I0129 09:06:50.410557 32620 net.cpp:124] Setting up conv17/dw
I0129 09:06:50.410576 32620 net.cpp:131] Top shape: 1 512 20 20 (204800)
I0129 09:06:50.410579 32620 net.cpp:139] Memory required for data: 89702400
I0129 09:06:50.410583 32620 layer_factory.hpp:77] Creating layer conv17/dw/relu
I0129 09:06:50.410586 32620 net.cpp:86] Creating Layer conv17/dw/relu
I0129 09:06:50.410588 32620 net.cpp:408] conv17/dw/relu <- conv17/dw
I0129 09:06:50.410593 32620 net.cpp:369] conv17/dw/relu -> conv17/dw (in-place)
I0129 09:06:50.410596 32620 net.cpp:124] Setting up conv17/dw/relu
I0129 09:06:50.410599 32620 net.cpp:131] Top shape: 1 512 20 20 (204800)
I0129 09:06:50.410601 32620 net.cpp:139] Memory required for data: 90521600
I0129 09:06:50.410604 32620 layer_factory.hpp:77] Creating layer conv17
I0129 09:06:50.410609 32620 net.cpp:86] Creating Layer conv17
I0129 09:06:50.410611 32620 net.cpp:408] conv17 <- conv17/dw
I0129 09:06:50.410614 32620 net.cpp:382] conv17 -> conv17
I0129 09:06:50.412895 32620 net.cpp:124] Setting up conv17
I0129 09:06:50.412906 32620 net.cpp:131] Top shape: 1 512 20 20 (204800)
I0129 09:06:50.412909 32620 net.cpp:139] Memory required for data: 91340800
I0129 09:06:50.412927 32620 layer_factory.hpp:77] Creating layer conv17/relu
I0129 09:06:50.412932 32620 net.cpp:86] Creating Layer conv17/relu
I0129 09:06:50.412936 32620 net.cpp:408] conv17/relu <- conv17
I0129 09:06:50.412940 32620 net.cpp:369] conv17/relu -> conv17 (in-place)
I0129 09:06:50.412945 32620 net.cpp:124] Setting up conv17/relu
I0129 09:06:50.412947 32620 net.cpp:131] Top shape: 1 512 20 20 (204800)
I0129 09:06:50.412952 32620 net.cpp:139] Memory required for data: 92160000
I0129 09:06:50.412955 32620 layer_factory.hpp:77] Creating layer conv17/sum
I0129 09:06:50.412958 32620 net.cpp:86] Creating Layer conv17/sum
I0129 09:06:50.412961 32620 net.cpp:408] conv17/sum <- upsample_new
I0129 09:06:50.412964 32620 net.cpp:408] conv17/sum <- conv17
I0129 09:06:50.412967 32620 net.cpp:382] conv17/sum -> conv17/sum
I0129 09:06:50.412999 32620 net.cpp:124] Setting up conv17/sum
I0129 09:06:50.413003 32620 net.cpp:131] Top shape: 1 512 20 20 (204800)
I0129 09:06:50.413018 32620 net.cpp:139] Memory required for data: 92979200
I0129 09:06:50.413020 32620 layer_factory.hpp:77] Creating layer conv18_plus
I0129 09:06:50.413027 32620 net.cpp:86] Creating Layer conv18_plus
I0129 09:06:50.413029 32620 net.cpp:408] conv18_plus <- conv17/sum
I0129 09:06:50.413033 32620 net.cpp:382] conv18_plus -> conv18_plus
I0129 09:06:50.414880 32620 net.cpp:124] Setting up conv18_plus
I0129 09:06:50.414886 32620 net.cpp:131] Top shape: 1 512 20 20 (204800)
I0129 09:06:50.414888 32620 net.cpp:139] Memory required for data: 93798400
I0129 09:06:50.414896 32620 layer_factory.hpp:77] Creating layer conv18_plus/relu
I0129 09:06:50.414901 32620 net.cpp:86] Creating Layer conv18_plus/relu
I0129 09:06:50.414912 32620 net.cpp:408] conv18_plus/relu <- conv18_plus
I0129 09:06:50.414916 32620 net.cpp:369] conv18_plus/relu -> conv18_plus (in-place)
I0129 09:06:50.414921 32620 net.cpp:124] Setting up conv18_plus/relu
I0129 09:06:50.414938 32620 net.cpp:131] Top shape: 1 512 20 20 (204800)
I0129 09:06:50.414940 32620 net.cpp:139] Memory required for data: 94617600
I0129 09:06:50.414942 32620 layer_factory.hpp:77] Creating layer conv18/dw
I0129 09:06:50.414947 32620 net.cpp:86] Creating Layer conv18/dw
I0129 09:06:50.414950 32620 net.cpp:408] conv18/dw <- conv18_plus
I0129 09:06:50.414953 32620 net.cpp:382] conv18/dw -> conv18/dw
I0129 09:06:50.415189 32620 net.cpp:124] Setting up conv18/dw
I0129 09:06:50.415194 32620 net.cpp:131] Top shape: 1 512 20 20 (204800)
I0129 09:06:50.415210 32620 net.cpp:139] Memory required for data: 95436800
I0129 09:06:50.415215 32620 layer_factory.hpp:77] Creating layer conv18/dw/relu
I0129 09:06:50.415217 32620 net.cpp:86] Creating Layer conv18/dw/relu
I0129 09:06:50.415220 32620 net.cpp:408] conv18/dw/relu <- conv18/dw
I0129 09:06:50.415225 32620 net.cpp:369] conv18/dw/relu -> conv18/dw (in-place)
I0129 09:06:50.415228 32620 net.cpp:124] Setting up conv18/dw/relu
I0129 09:06:50.415231 32620 net.cpp:131] Top shape: 1 512 20 20 (204800)
I0129 09:06:50.415233 32620 net.cpp:139] Memory required for data: 96256000
I0129 09:06:50.415235 32620 layer_factory.hpp:77] Creating layer conv18_new
I0129 09:06:50.415239 32620 net.cpp:86] Creating Layer conv18_new
I0129 09:06:50.415241 32620 net.cpp:408] conv18_new <- conv18/dw
I0129 09:06:50.415246 32620 net.cpp:382] conv18_new -> conv18_new
I0129 09:06:50.419145 32620 net.cpp:124] Setting up conv18_new
I0129 09:06:50.419157 32620 net.cpp:131] Top shape: 1 1024 20 20 (409600)
I0129 09:06:50.419160 32620 net.cpp:139] Memory required for data: 97894400
I0129 09:06:50.419164 32620 layer_factory.hpp:77] Creating layer conv18_new/relu
I0129 09:06:50.419169 32620 net.cpp:86] Creating Layer conv18_new/relu
I0129 09:06:50.419173 32620 net.cpp:408] conv18_new/relu <- conv18_new
I0129 09:06:50.419178 32620 net.cpp:369] conv18_new/relu -> conv18_new (in-place)
I0129 09:06:50.419181 32620 net.cpp:124] Setting up conv18_new/relu
I0129 09:06:50.419184 32620 net.cpp:131] Top shape: 1 1024 20 20 (409600)
I0129 09:06:50.419188 32620 net.cpp:139] Memory required for data: 99532800
I0129 09:06:50.419189 32620 layer_factory.hpp:77] Creating layer conv22
I0129 09:06:50.419209 32620 net.cpp:86] Creating Layer conv22
I0129 09:06:50.419211 32620 net.cpp:408] conv22 <- conv15_conv15/relu_0_split_1
I0129 09:06:50.419217 32620 net.cpp:382] conv22 -> conv22
I0129 09:06:50.420915 32620 net.cpp:124] Setting up conv22
I0129 09:06:50.420925 32620 net.cpp:131] Top shape: 1 255 10 10 (25500)
I0129 09:06:50.420929 32620 net.cpp:139] Memory required for data: 99634800
I0129 09:06:50.420948 32620 layer_factory.hpp:77] Creating layer conv23_new
I0129 09:06:50.420953 32620 net.cpp:86] Creating Layer conv23_new
I0129 09:06:50.420956 32620 net.cpp:408] conv23_new <- conv18_new
I0129 09:06:50.420961 32620 net.cpp:382] conv23_new -> conv23_new
I0129 09:06:50.422224 32620 net.cpp:124] Setting up conv23_new
I0129 09:06:50.422231 32620 net.cpp:131] Top shape: 1 255 20 20 (102000)
I0129 09:06:50.422233 32620 net.cpp:139] Memory required for data: 100042800
I0129 09:06:50.422237 32620 net.cpp:202] conv23_new does not need backward computation.
I0129 09:06:50.422258 32620 net.cpp:202] conv22 does not need backward computation.
I0129 09:06:50.422261 32620 net.cpp:202] conv18_new/relu does not need backward computation.
I0129 09:06:50.422263 32620 net.cpp:202] conv18_new does not need backward computation.
…
